mdl_pars.pth (torch, 31585 bytes, 43 tensors)

weight f4 [16, 10]
0	0x40ee4c2e	7.4467993
1	0x3f37cd38	0.71797514
2	0xc0365a40	-2.8492584
3	0x3fda8344	1.7071309
4	0xbfe6ef30	-1.8041744
5	0xbfa34559	-1.2755538
6	0xbf8ebcd9	-1.1151382
7	0xbe5b2c80	-0.21403694
8	0x3f8a8c0a	1.0823987
9	0x3f314577	0.6924662
10	0x408dd82f	4.4326396
11	0x3fe89051	1.8169042
12	0x4095b45e	4.6782675
13	0x3f2fcec4	0.68674874
14	0xc002436e	-2.0353656
15	0xbf8d06c1	-1.1017686
16	0xbf7525e4	-0.9576094
17	0xbf3fd16d	-0.74928933
18	0xbf290e89	-0.66037804
19	0x40643650	3.565815
20	0x3ebefc31	0.37301782
21	0x3f19811e	0.5996264
22	0x3f060e83	0.52365893
23	0xbe218142	-0.15771964
24	0xbde940cd	-0.11389313
25	0xbe86867d	-0.2627448
26	0xbe53cfc1	-0.2068472
27	0xbede14e8	-0.43375325
28	0x3e32172b	0.1739165
29	0x3db2513f	0.08706903
30	0xbd9bc7ae	-0.07606445
31	0x3e5897e2	0.21151689
32	0x3e5aa67e	0.21352574
33	0xbb2f7a80	-0.0026775897
34	0xbe5607e8	-0.20901453
35	0xbda68ab8	-0.08131927
36	0xbe54a90a	-0.20767608
37	0x3d05c650	0.03265983
38	0xbe14a991	-0.1451781
39	0xbcaa47d0	-0.020786196
40	0x3fbc4ef1	1.4711591
41	0x3f015fe5	0.5053695
42	0xbcd32011	-0.025772126
43	0xbe728608	-0.23683941
44	0xbf3019ba	-0.68789256
45	0xbf6c35a3	-0.92269343
46	0xbf870e66	-1.0551269
47	0xbf889b9a	-1.0672486
48	0xbf655ed5	-0.8959783
49	0xbe1a4f98	-0.15069425
50	0xbfee7f25	-1.8632551
51	0xbf979754	-1.1843057
52	0xbf92bdaf	-1.1464137
53	0xbefedcad	-0.49777737
54	0xbe41c402	-0.18922427
55	0x3df81e2a	0.12115128
56	0x3e9d9cbf	0.3078365
57	0xbdb9f491	-0.090798505
58	0xbd5e0516	-0.05420407
59	0xbaf49db5	-0.0018662723
60	0xc0f686ae	-7.7039404
61	0xbfc62cf2	-1.5482466
62	0x401e5ea4	2.4745264
63	0xbde6cf1f	-0.11269974
64	0xbfe35f09	-1.7763377
65	0x3e894f7d	0.26818457
66	0xbdd1d859	-0.10246343
67	0x3f01ad49	0.5065504
68	0x3f4b8f4b	0.7951552
69	0xbe47ada7	-0.19499837
70	0xbe2d12cf	-0.16901706
71	0x3e6024ee	0.21889088
72	0x3cdbd340	0.02683413
73	0xbcd81310	-0.026376277
74	0xbe4f63db	-0.20252936
75	0x3e9976d9	0.29973486
76	0x3c8c1420	0.01709944
77	0x3d9af460	0.07566142
78	0xbe8cc37e	-0.274929
79	0x3e8c0d4d	0.27353898
80	0xc0b9770b	-5.7957816
81	0xbf1dc44c	-0.6162765
82	0x40678c74	3.6179476
83	0xbf08d741	-0.5345345
84	0xbfe98e80	-1.8246613
85	0x3d2912d2	0.041277714
86	0xbec22316	-0.37917393
87	0x3dd1148b	0.102089964
88	0x3f76576f	0.96227163
89	0x3df7f3f2	0.12107076
90	0xbe2b0630	-0.16701579
91	0x3d9724f4	0.07380095
92	0xbe067fb6	-0.13134655
93	0xbe9c4291	-0.30519536
94	0x3dd05828	0.101730645
95	0xbe0fed72	-0.14055422
96	0x3d37dd28	0.044888645
97	0x3e5ac05e	0.21362445
98	0xbe1a068c	-0.1504156
99	0xbd95b674	-0.07310191
100	0x3f365650	0.7122545
101	0x3ee7de5a	0.45286828
102	0x3f4bc878	0.79602766
103	0x3e92a28e	0.28639644
104	0xbdd9f591	-0.10642541
105	0xbec63ff2	-0.3872066
106	0xbe5e5f16	-0.2171596
107	0xbf033e77	-0.5126719
108	0x3d50ab6d	0.050944734
109	0xbdaa5e1f	-0.083187334
110	0x3e574635	0.21022876
111	0x3e00cdb9	0.12578477
112	0x3e21749c	0.15767139
113	0xbce84831	-0.028354736
114	0xbe806c97	-0.25082847
115	0x3e03c5f0	0.12868476
116	0xbe7a0361	-0.24415351
117	0x3cf688a3	0.03009445
118	0x3e518895	0.20462258
119	0x3b6ff5c2	0.003661499
120	0x400f7a35	2.241834
121	0xbed88291	-0.42287114
122	0x3ea3d333	0.3199707
123	0x3f7af2e4	0.9802687
124	0x3f96ff5d	1.1796681
125	0xbf9aef07	-1.2104195
126	0xbf1a3edf	-0.60252184
127	0xbd008148	-0.031373292
128	0xc03dbf2b	-2.964793
129	0xc05ce9a7	-3.451761
130	0xbe0835c6	-0.13301763
131	0xbe89ea05	-0.26936355
132	0x3c94fdc0	0.018187404
133	0x3e4691ce	0.19391558
134	0x3e9f13af	0.31069705
135	0xbe2e9a0e	-0.17050955
136	0x3e76987a	0.24081603
137	0xbe79773a	-0.24361888
138	0xbe19d9fd	-0.15024562
139	0x3e0b957e	0.13631245
140	0xbfc14bf0	-1.5101299
141	0xbf8b8af3	-1.0901779
142	0xbf240152	-0.64064515
143	0xbedcd7cc	-0.4313339
144	0x3e090563	0.13380961
145	0x3e25fbcb	0.16209333
146	0x3b40f156	0.0029440722
147	0x3e15a7e6	0.1461483
148	0xbd103a50	-0.03521186
149	0xbe80ee00	-0.2518158
150	0xc0d6adf4	-6.7087345
151	0xc026e155	-2.6075032
152	0x40082a0b	2.127566
153	0xbfd35c4d	-1.6512543
154	0xbfdfc538	-1.7482061
155	0x3e4e74f2	0.20161799
156	0x3ec4723e	0.3836841
157	0x3ebef602	0.37297064
158	0x3fe96ac1	1.8235704
159	0x3f3b18c1	0.73084646

bias f4 [16]
0	0x3efa22fc	0.48854816
1	0xbeeaa407	-0.45828268
2	0xbe158e08	-0.14604962
3	0xbe1bfa4f	-0.15232204
4	0x3f22a584	0.63533807
5	0xbda6ccb4	-0.08144513
6	0x3f20031d	0.6250475
7	0xbe8b5302	-0.27211767
8	0x3f2de434	0.67926335
9	0xbe637a36	-0.22214589
10	0xbef8fe59	-0.48631552
11	0xbe951651	-0.2911859
12	0x3f9209ae	1.1409204
13	0xbe788152	-0.24268082
14	0xbd0b16a0	-0.033957124
15	0x3e04b9eb	0.12961547

weight f4 [8, 16]
0	0xbc1d5313	-0.009602326
1	0xbe147680	-0.14498329
2	0x3e3cbc1e	0.18431136
3	0xbca046a0	-0.019564927
4	0xbe727259	-0.23676433
5	0xbd6bd4ab	-0.057575863
6	0xbdbcc962	-0.09218098
7	0x3e6dc836	0.23220906
8	0xbec8fb66	-0.39254302
9	0xbdb29980	-0.08720684
10	0xbdc124f3	-0.09430876
11	0xbbd0784f	-0.006361998
12	0xbc7297be	-0.014806686
13	0x3e6c57f0	0.2308042
14	0xbe0acc30	-0.13554454
15	0xbec1e2d0	-0.37868357
16	0xc006c1ab	-2.1055706
17	0xc0299de7	-2.6502626
18	0xbe4beb02	-0.19913867
19	0xbd7b3470	-0.061329305
20	0xc03d06c3	-2.9535377
21	0x3debde50	0.11517012
22	0x40088089	2.1328452
23	0x3e00be58	0.1257261
24	0x3f32ab6a	0.6979281
25	0xbe1ecc10	-0.15507531
26	0x3d59e20e	0.0531941
27	0x3e0d508d	0.13800259
28	0x3f672955	0.9029744
29	0xbd391a38	-0.04519102
30	0x3e7855f0	0.24251533
31	0x3f835c35	1.0262514
32	0xbf7f3836	-0.99695146
33	0xbfd79950	-1.6843662
34	0xbcfc4ae6	-0.030797433
35	0xbc8723c0	-0.01649654
36	0xbf0a86ee	-0.54112136
37	0x3d8f80c1	0.0700698
38	0x3e43a192	0.19104603
39	0x3e37483c	0.17898649
40	0xbe8a02ad	-0.26955166
41	0x3e1c4e78	0.15264308
42	0xbeb3f05c	-0.35144317
43	0x3d83e84f	0.06440794
44	0xbf6d4dc9	-0.92696816
45	0x3e5dd56a	0.21663442
46	0xbea72540	-0.32645607
47	0xbe2163dc	-0.1576075
48	0xbe3e08b0	-0.18558002
49	0xbd173e87	-0.036924865
50	0x3e07308d	0.13202114
51	0x3e2daeda	0.16961232
52	0xbcb33a95	-0.02187852
53	0xbd2ab13a	-0.041672923
54	0x3d248f06	0.04017546
55	0x3e2b338a	0.1671888
56	0x3dafb4e8	0.08579427
57	0xbe3cd4e0	-0.1844058
58	0xbe2c9129	-0.16852249
59	0xbe750b62	-0.23930123
60	0x3d838465	0.06421737
61	0x3d7fc160	0.062440276
62	0xbe5f1d5a	-0.2178854
63	0xbd57f65b	-0.052725177
64	0xbe94ddab	-0.2907537
65	0xc02e09d7	-2.7193506
66	0xbd40b1fc	-0.04704474
67	0xbcd96d60	-0.026541412
68	0xc086e8b7	-4.2159076
69	0x3e98d1e8	0.29847646
70	0x3fcedb77	1.6160725
71	0xbe379fda	-0.17932072
72	0x3f2e135d	0.67998296
73	0xbe7daec2	-0.24773696
74	0xbe72c604	-0.2370835
75	0xbe7a49f4	-0.24442273
76	0xbef83d92	-0.48484474
77	0x3cdca230	0.026932806
78	0xbe3ed434	-0.18635637
79	0x3e850d7d	0.25986853
80	0xbdc55f84	-0.09637359
81	0xbd8e85cf	-0.06959116
82	0xbdd8ecc4	-0.105920345
83	0x3e69115c	0.22760528
84	0xbe586457	-0.21132027
85	0x3e2d155c	0.16902679
86	0x3d1e1ca0	0.038601518
87	0x3e43360c	0.19063586
88	0xbc2a6220	-0.010399371
89	0xbe0ecc56	-0.13945135
90	0xbc94803e	-0.018127557
91	0x3e62c8c8	0.22146904
92	0x3d918616	0.07105653
93	0x3e047f26	0.12939128
94	0xbd7a2a88	-0.061075717
95	0xbd0a8600	-0.0338192
96	0xbe3712ba	-0.17878237
97	0xbddd7204	-0.108127624
98	0xbdb397c6	-0.08769183
99	0x3ac52200	0.001504004
100	0x3ca77d73	0.020445561
101	0xbed270b1	-0.41101602
102	0xbec9e009	-0.39428738
103	0x3da1df18	0.0790388
104	0xbdf99a29	-0.12187607
105	0x3cf87e60	0.030333698
106	0xbe0a6026	-0.1351324
107	0x3e6bccc8	0.23027337
108	0x3ddf9d77	0.10918706
109	0xbd799588	-0.06093362
110	0xbe7aaee1	-0.24480774
111	0x3db6e06e	0.08929525
112	0xbf83c863	-1.0295528
113	0xc027777b	-2.6166675
114	0xbd882508	-0.06647688
115	0xbbe22900	-0.0069018602
116	0xbefaac5d	-0.48959628
117	0x3e4be4dd	0.19911523
118	0x3f9f5822	1.2448771
119	0xbd91c08c	-0.071168035
120	0x3f58af40	0.8464241
121	0xbe31b00e	-0.17352316
122	0xbe8fab4b	-0.28060374
123	0xbe795fd5	-0.24352963
124	0xc07fd78b	-3.9975307
125	0x3e1c0e90	0.1523993
126	0xbdef54da	-0.11686106
127	0x40131ea9	2.2987463

bias f4 [8]
0	0xbe3948e9	-0.1809422
1	0xbd9f21e7	-0.07770138
2	0xbd8d8ec2	-0.069119945
3	0xbe8d2acf	-0.27571723
4	0x3e9fbaee	0.31197304
5	0xbe230be9	-0.15922512
6	0xbe09a224	-0.13440758
7	0x3f270fab	0.6525828

weight f4 [4, 8]
0	0xbcb32950	-0.021870285
1	0x3d0278d0	0.031853497
2	0xbcadb820	-0.021205962
3	0x3daf94d4	0.085733086
4	0xbe9a8574	-0.30179942
5	0xbdfe586c	-0.12419209
6	0x3e87883b	0.26471123
7	0xbe2df3c9	-0.16987528
8	0xbe38f0d1	-0.18060614
9	0xbf262c2a	-0.6491114
10	0xbe8792d4	-0.26479208
11	0xbe81cad6	-0.25350064
12	0xbee8f438	-0.45498824
13	0xbe7f7c9e	-0.24949881
14	0x3ced1aa3	0.028943365
15	0xbf64319c	-0.891382
16	0x3c965e60	0.018355548
17	0xbe078f69	-0.132383
18	0xbf0b5428	-0.5442529
19	0xbe1deb29	-0.15421738
20	0x3d986187	0.07440477
21	0x3d409c80	0.04702425
22	0x3ea072bb	0.31337532
23	0x3e110991	0.14163806
24	0x3d696ad0	0.05698663
25	0xbe881fc0	-0.26586723
26	0xbe331232	-0.1748741
27	0xbe4b624e	-0.19861719
28	0xbe57282e	-0.21011421
29	0x3e507c52	0.20359924
30	0x3e871bbf	0.26388356
31	0xbdc645a0	-0.09681249

bias f4 [4]
0	0xbe4b9ad7	-0.19883285
1	0x401eac83	2.4792793
2	0xbea57135	-0.32312933
3	0xbe942a51	-0.28938535

weight f4 [16, 10]
0	0x3f3846fa	0.719833
1	0xc0ac7091	-5.388741
2	0x3f22b3be	0.63555515
3	0x3ffdca31	1.9827329
4	0xc0072192	-2.111424
5	0x3f66d2dd	0.901655
6	0x3ed40049	0.41406468
7	0x3f96ecce	1.1791017
8	0xbf9de450	-1.23353
9	0x40139967	2.306238
10	0xc097ec26	-4.7475767
11	0xc002278b	-2.0336635
12	0xbf877fc8	-1.0585871
13	0xc046c80c	-3.10596
14	0xc043f795	-3.0619862
15	0xc01d7554	-2.4602861
16	0xc0352957	-2.8306482
17	0xc015dd26	-2.3416228
18	0x3eda2c9e	0.42612165
19	0x4028a69d	2.6351693
20	0xbe9d4a90	-0.3072095
21	0xbdb753e6	-0.08951549
22	0xbdac3c6e	-0.084099635
23	0x3e68953a	0.22713175
24	0x3e62c55e	0.22145602
25	0x3e5ffad6	0.2187303
26	0xbe9dd157	-0.30823776
27	0xbe7ca5b3	-0.24672584
28	0x3e3c5b92	0.18394306
29	0xbe99f3cc	-0.30068815
30	0x40952339	4.6605496
31	0xbf856cc0	-1.0423813
32	0x405805ee	3.375362
33	0x3fab6385	1.3389746
34	0xbfde8c14	-1.7386498
35	0x3f9a823b	1.2070993
36	0x3da3c316	0.07996194
37	0x3ef2c825	0.47418323
38	0xc03e6ee2	-2.9755177
39	0x40204a27	2.504526
40	0x3f6e4fa6	0.93090284
41	0x3f8c7ae4	1.0975003
42	0xbeb1b4f0	-0.34708357
43	0x40e74131	7.226708
44	0x3fa60ec8	1.2973261
45	0xbf9f8323	-1.2461895
46	0xbf1e5008	-0.6184087
47	0xbf80edcc	-1.007257
48	0xbf8bb80d	-1.0915543
49	0x3f1bb645	0.60824996
50	0x4033a547	2.8069627
51	0xbd803982	-0.06260969
52	0x40c51f19	6.160046
53	0x3fa2ef32	1.2729247
54	0x3f8c145a	1.0943711
55	0x3f2dadd8	0.6784339
56	0xbf165e6d	-0.5873783
57	0x3f027efd	0.5097502
58	0xc07c49a5	-3.941995
59	0xc0981de0	-4.753647
60	0x3e9424b8	0.28934264
61	0xc011ffb4	-2.2812319
62	0xbeccfd73	-0.40037116
63	0x401d84f4	2.4612398
64	0xc0011414	-2.0168505
65	0x3fa872eb	1.316007
66	0xbc0b40ca	-0.008499334
67	0x3f038af3	0.51383895
68	0xc03e13db	-2.969962
69	0x4007f1ad	2.1241257
70	0xbcd67ad0	-0.026181608
71	0x3e6d1e1a	0.23156014
72	0xbd3dd960	-0.046349883
73	0x3e7ae72e	0.2450225
74	0xbe825e21	-0.2546244
75	0xbe94025c	-0.2890805
76	0xbe7ea716	-0.24868426
77	0x3be81a00	0.0070831776
78	0x3cd7ef60	0.02635926
79	0x3c987f30	0.018615335
80	0xbf203297	-0.62577194
81	0xbe5a9f1a	-0.21349755
82	0xbe6a683b	-0.22891323
83	0x3d3a25d8	0.045446247
84	0x3d208572	0.039189763
85	0xbdfb0012	-0.12255873
86	0x3de4e4b4	0.11176434
87	0x3dfe1d69	0.12407953
88	0xbd269d75	-0.040677506
89	0xbeb0b68a	-0.34514266
90	0x40b4d77e	5.651305
91	0x409ea62e	4.9577856
92	0x4036d8f4	2.8569918
93	0x3e7643f4	0.2404936
94	0xbe799c0c	-0.24375933
95	0xbf771415	-0.9651502
96	0xbf18cf82	-0.5969163
97	0xbfaeb10b	-1.3647779
98	0xbf3c10e9	-0.734633
99	0x3fd6cf8e	1.6782091
100	0x3cc1a9d7	0.023640556
101	0x3d850fa2	0.06497122
102	0x3da36fd5	0.07980315
103	0xbd413aa1	-0.047175054
104	0xbdd29f43	-0.10284283
105	0xbd6f1fe7	-0.058380034
106	0xbe01813d	-0.12646957
107	0xbe24712a	-0.16058794
108	0x3d819984	0.06328109
109	0xbe5f1c96	-0.21788248
110	0x3e5dc8fa	0.21658698
111	0xbb814080	-0.0039444566
112	0x3e101dd4	0.14073879
113	0xbe74db3e	-0.2391176
114	0x3e3d132e	0.18464348
115	0x3de2d134	0.110750586
116	0x3deab4cc	0.114602655
117	0xbdf21cb4	-0.11821881
118	0x3cda1170	0.026619643
119	0xbe9ebc96	-0.31003255
120	0xbdf791d3	-0.12088361
121	0xbe663481	-0.22480966
122	0x3c1d00e3	0.009582731
123	0x3e8faf18	0.28063273
124	0x3e981661	0.29704574
125	0x3ca16a37	0.019703967
126	0xbe8b10f7	-0.2716138
127	0x3de54c2c	0.11196169
128	0xbe4d3e7f	-0.20043372
129	0x3e3a8a36	0.18216786
130	0xbd7b607d	-0.061371315
131	0xbe46efec	-0.1942746
132	0x3e945e48	0.2897818
133	0xbc462c4e	-0.012095524
134	0x3e11e057	0.14245735
135	0x3e9da7bc	0.30792034
136	0x3e2d5478	0.16926754
137	0xbe87100e	-0.26379436
138	0xbb2cc840	-0.0026364475
139	0xbe753f5b	-0.2394995
140	0xbecbf312	-0.39833885
141	0xbe679257	-0.22614418
142	0xbd93c226	-0.07214765
143	0xbe678f01	-0.22613145
144	0xbe953465	-0.29141536
145	0x3dd453b7	0.1036753
146	0xbcfd7a9a	-0.03094225
147	0xbe61b513	-0.2204173
148	0x3e8175c7	0.2528517
149	0xbe8840a0	-0.26611805
150	0xc067807b	-3.6172168
151	0x3facbbf4	1.3494859
152	0x3eb63cc6	0.3559324
153	0xbf602e07	-0.8757023
154	0x3fd39e17	1.653262
155	0xbfa93b17	-1.3221158
156	0xbf01c9ea	-0.5069872
157	0xbf493c6b	-0.78607816
158	0x401fc314	2.4962816
159	0xbf9f51cd	-1.2446839

bias f4 [16]
0	0xbe5a1ef8	-0.21300876
1	0x3f459ee5	0.7719558
2	0xbe48bef7	-0.19604097
3	0xbd34330c	-0.043993995
4	0x3efafd5a	0.49021417
5	0x3d014098	0.031555742
6	0x3e4f81e3	0.20264392
7	0xbdd886a2	-0.10572554
8	0xbd245e26	-0.04012885
9	0x3dca87a7	0.09889155
10	0xbca64077	-0.020294411
11	0xbe6061c9	-0.21912302
12	0xbe42ff37	-0.19042669
13	0xbe98f098	-0.29871058
14	0xbc7f1fdf	-0.0155715635
15	0x3f0a9a8c	0.5414207

weight f4 [8, 16]
0	0xbf83153f	-1.0240859
1	0x4050e450	3.263935
2	0xbe009e80	-0.12560463
3	0xc1000aa8	-8.002602
4	0xbf81d2e8	-1.0142488
5	0x3e658600	0.22414398
6	0xbd1ad66d	-0.03780215
7	0x3e425c2c	0.18980473
8	0x3e28aa9d	0.16471334
9	0xbfa713dd	-1.3052937
10	0x3a96bb81	0.0011499972
11	0xbd702fc0	-0.058639288
12	0x3e065298	0.13117445
13	0x3e0720f4	0.13196164
14	0xbe1b806a	-0.15185705
15	0x3f4d304a	0.8015181
16	0x3eb79d13	0.35862026
17	0x4080a9a4	4.020708
18	0x3d0b3d88	0.033994228
19	0xc017d611	-2.3724406
20	0x4035da86	2.8414626
21	0xbfe9cb4e	-1.8265169
22	0xbf095426	-0.53644025
23	0xbe3f7dac	-0.18700284
24	0xbdda1732	-0.106489554
25	0x402d4720	2.7074661
26	0xbcde223f	-0.02711594
27	0x3da6506c	0.08120808
28	0x3dc64b67	0.096823506
29	0xbddf5efa	-0.10906787
30	0xbe1338ec	-0.14377183
31	0x3f4027ed	0.7506092
32	0xbe5b6edb	-0.21429007
33	0xbe91da59	-0.284869
34	0xbd2e64e0	-0.04257667
35	0x3df92fa6	0.12167291
36	0xbdf444a6	-0.11927156
37	0xbdd00f8b	-0.101592146
38	0xbe162dd2	-0.14665917
39	0xbe2d7e4e	-0.16942713
40	0xbe93350b	-0.28751406
41	0xbe052916	-0.13003954
42	0xbd1229b8	-0.035684317
43	0xbdb9a560	-0.09064746
44	0x3e755d7a	0.2396144
45	0x3e00c826	0.1257635
46	0xbd44f414	-0.048084334
47	0xbddbc6a1	-0.10731245
48	0xc07a7881	-3.913605
49	0x402d3a8a	2.706698
50	0xbdd04f48	-0.10171372
51	0xc0087d5d	-2.1326516
52	0x3fafa109	1.3721019
53	0xc05a63a3	-3.4123313
54	0xc04104a4	-3.0159082
55	0xbe3751ae	-0.17902252
56	0xbde8ec9f	-0.11373257
57	0x3f13e011	0.57763773
58	0xbddd02d2	-0.107915536
59	0x3dfac428	0.12244445
60	0x3d951b16	0.07280557
61	0xbc8fc420	-0.017549574
62	0xbdd29b36	-0.102835104
63	0x3f8f3e7a	1.1190941
64	0xbe6a7256	-0.22895178
65	0xbd98eff3	-0.07467642
66	0xbe456bec	-0.1927945
67	0x3d14bb5e	0.0363115
68	0xbe2c59d1	-0.16831137
69	0x3c6ac606	0.014329439
70	0x3d44d866	0.048057936
71	0x3e03648a	0.12831321
72	0xbd9c962f	-0.07645833
73	0xbdcbbab2	-0.09947719
74	0x3e0d2628	0.13784087
75	0xbd90a66c	-0.070629925
76	0x3e769ee8	0.24084055
77	0xbe031800	-0.12802124
78	0xbd778af8	-0.060435265
79	0x3c12df58	0.008964382
80	0xbed7770b	-0.4208301
81	0xbe195f28	-0.14977705
82	0xbe4728b2	-0.19449118
83	0xbdca599c	-0.09880373
84	0xbeeec239	-0.46632555
85	0xbce2edee	-0.027701344
86	0xbea7d611	-0.32780507
87	0xbe2b247e	-0.1671314
88	0xbeb4bc68	-0.35299993
89	0xbb8eac45	-0.004354032
90	0xbe3a0754	-0.18166858
91	0xbe1c82ea	-0.15284315
92	0xbc274720	-0.010209829
93	0xbe25f90c	-0.16208285
94	0xbe726dba	-0.2367467
95	0xbe47b275	-0.1950167
96	0xc0213763	-2.5190055
97	0x3f4e175f	0.8050441
98	0xbde7f400	-0.11325836
99	0xbf911f2c	-1.1337638
100	0xbf86e750	-1.0539341
101	0x40088d1e	2.133613
102	0xc087bcd8	-4.241802
103	0xbe4c71d6	-0.199653
104	0x3dfbb963	0.12291219
105	0xbfb90a74	-1.4456315
106	0xbe594695	-0.21218331
107	0x3e54482a	0.20730653
108	0x3e5a3da6	0.2131258
109	0x3dc786dc	0.09742519
110	0xbd9d1ae4	-0.076711446
111	0x3f733c45	0.9501384
112	0x3c54f39c	0.012997534
113	0xbe259390	-0.16169572
114	0x3e0d8414	0.13819915
115	0xbe3e304f	-0.18573116
116	0x3c0d71ce	0.00863309
117	0x3dbc3a4f	0.09190809
118	0xbe8316f2	-0.25603443
119	0x3e35c4d4	0.17750865
120	0xbe7b970d	-0.2456934
121	0x3d80d050	0.062897325
122	0x3daa97a4	0.083297044
123	0xbd8192f0	-0.06326854
124	0x3e053919	0.13010062
125	0x3e595a66	0.2122589
126	0x3d7a55b0	0.061116874
127	0xbcd9ccc8	-0.026586905

bias f4 [8]
0	0x3f46ca48	0.77652407
1	0x3e87734c	0.26455152
2	0xbd9c2f56	-0.07626216
3	0x3de0004c	0.109375566
4	0xbd685298	-0.056719393
5	0xbe029182	-0.1275082
6	0x3f95d9d8	1.1707106
7	0xbe0a5f1a	-0.13512841

weight f4 [4, 8]
0	0x3fcbf269	1.5933353
1	0xbf91aec9	-1.1381465
2	0xbd54f1fb	-0.051988583
3	0xbf2e013b	-0.6797063
4	0x3e385758	0.18002069
5	0x3e8baf9b	0.27282414
6	0x3fd9fca3	1.7030224
7	0xbe29e1cc	-0.16590041
8	0x3fdda557	1.7316083
9	0x3f52fee2	0.8242017
10	0xbddaacda	-0.106775
11	0x3f8ccb1c	1.0999484
12	0x3e695343	0.22785668
13	0xbe14c56b	-0.14528434
14	0x40077f30	2.117138
15	0xbe6c8a89	-0.23099722
16	0xbdb89fcc	-0.09014854
17	0xbdd74606	-0.10511403
18	0x3e896593	0.26835307
19	0x3e4ad0ce	0.19806215
20	0xbe11c494	-0.14235145
21	0x3e6143ba	0.21998492
22	0xbd1665a8	-0.03671804
23	0x3e9ecbd1	0.31014875
24	0xbc675e3d	-0.014121589
25	0xbe87ca8d	-0.2652172
26	0xbd1c4718	-0.038153738
27	0x3e7faf83	0.24969296
28	0x3e356dc2	0.1771765
29	0x3dce28c4	0.10066369
30	0xbeb0af5f	-0.34508798
31	0x3e0b28ea	0.13589826

bias f4 [4]
0	0x3fe7f603	1.8121952
1	0xbda37a01	-0.07982255
2	0xbdc35ddc	-0.09539387
3	0xbda42f82	-0.08016874

weight f4 [16, 10]
0	0xbfb5f282	-1.4214633
1	0x4034faec	2.827815
2	0x406a013d	3.6563256
3	0x40babf4a	5.8358507
4	0x3f1f0af9	0.6212612
5	0x3e9c4b3a	0.30526143
6	0xbf220ee8	-0.63303995
7	0xbfa7974d	-1.3093048
8	0xbfa258a9	-1.2683307
9	0x3f9aea39	1.2102729
10	0xbe779414	-0.24177581
11	0xba0e7e00	-0.00054356456
12	0xbd6fe468	-0.058567435
13	0xbdc83104	-0.09774974
14	0x3da626c4	0.08112863
15	0xbe2e9439	-0.1704873
16	0x3bca0280	0.006164849
17	0x3d74f9d8	0.059808582
18	0xbdb49c22	-0.088188425
19	0x3e594bbe	0.212203
20	0xbe8a957b	-0.2706717
21	0x3e19aca6	0.15007266
22	0x3d56f850	0.052482903
23	0x3d678258	0.05652079
24	0x3dd3cb70	0.10341537
25	0xbe580529	-0.21095718
26	0xba2ddc00	-0.0006632209
27	0x3ddc5e1c	0.107601374
28	0xbe23f8ea	-0.16012922
29	0x3c9976b0	0.018733352
30	0xbe21df21	-0.15807773
31	0x3b58a580	0.003305763
32	0x3e722c22	0.23649648
33	0x3de91264	0.11380461
34	0xbde4c94c	-0.11171207
35	0xbd284cf0	-0.041089
36	0x3e7bd77e	0.24593922
37	0xbe30e0da	-0.17273274
38	0xbe187b2a	-0.14890733
39	0xbe0cf0bd	-0.1376371
40	0xbd80e176	-0.06293003
41	0xbf21d100	-0.63209534
42	0x409f13e6	4.971179
43	0x3fa41059	1.2817489
44	0xc048debe	-3.138595
45	0xc012fdb2	-2.2967343
46	0xbe662149	-0.22473635
47	0x3e88c00f	0.2670903
48	0xbe1a1c1a	-0.15049782
49	0x40953a22	4.6633463
50	0xbf7078a9	-0.9393411
51	0x4065c167	3.5899293
52	0xbe241420	-0.16023302
53	0xbf98b879	-1.1931297
54	0xc0145937	-2.3179452
55	0xbf5a8800	-0.8536377
56	0x3f8e9678	1.113967
57	0x3cfc7555	0.030817667
58	0x4034447f	2.8166807
59	0x3f2bb322	0.6707021
60	0x3e61ad72	0.2203882
61	0x3c0701a0	0.0082401335
62	0x3e707c6e	0.23484966
63	0xbe7a34c4	-0.24434191
64	0xbe76d893	-0.24106054
65	0x3cfc2520	0.030779421
66	0xbdd6089c	-0.10450861
67	0x3dbb03b4	0.09131566
68	0xbe8a95d8	-0.27067447
69	0xbe975b66	-0.2956192
70	0x3fff0a02	1.9924929
71	0x3fea6461	1.8311883
72	0x40016f6f	2.0224264
73	0x404b5ce7	3.1775453
74	0xbf194b27	-0.598803
75	0x3fe59c04	1.7938237
76	0x3ea9de9d	0.33177653
77	0x3ea94444	0.33059895
78	0xc008efeb	-2.1396434
79	0x3fb046bf	1.377159
80	0x408ead7f	4.4586787
81	0x405b3391	3.4250224
82	0xc028186d	-2.6264908
83	0xc0004003	-2.003907
84	0xbfcea1bb	-1.6143106
85	0xbd40b72a	-0.04704968
86	0xbf5547e7	-0.8331284
87	0x3efa4db2	0.48887402
88	0x40644a44	3.5670328
89	0xbf519fc9	-0.8188444
90	0x408a2d1e	4.3180075
91	0x40a451bd	5.134978
92	0xbf531c0c	-0.8246467
93	0x4023a8ac	2.55717
94	0x3fae0379	1.359481
95	0xbf9fd8a7	-1.2487992
96	0xc03196ed	-2.7748368
97	0xc07d5a2d	-3.958629
98	0x404fa351	3.244343
99	0xbf14b60b	-0.58090276
100	0x3c4c740a	0.012478838
101	0x40688bd1	3.6335337
102	0xc04bdb71	-3.1852686
103	0xc004ec31	-2.076916
104	0x401d9c78	2.462675
105	0xbf039c38	-0.51410246
106	0x3d68dda9	0.056852017
107	0xbd27f434	-0.041004375
108	0x4028e00e	2.6386752
109	0xc02a4405	-2.6604016
110	0xbf1544cf	-0.5830812
111	0x3f457060	0.77124596
112	0x403c5b0f	2.9430578
113	0x405e801c	3.4765692
114	0xbf7a7e97	-0.9784941
115	0x3fd2d19a	1.6470215
116	0x3e8277c9	0.25482014
117	0x3e68c6f9	0.22732152
118	0xc0205222	-2.505013
119	0x3ff403d5	1.906367
120	0x3dc32ef8	0.09530443
121	0xbd0dd6d8	-0.03462872
122	0x3e9f41b5	0.31104818
123	0xbe6c9910	-0.23105264
124	0xbe737ed4	-0.2377885
125	0xbe8fcc13	-0.28085384
126	0x3e0b0520	0.13576174
127	0xbdb17a06	-0.08665852
128	0xbddd7f6e	-0.10815321
129	0xbe14fcb4	-0.14549524
130	0xbf5f9ace	-0.8734559
131	0x405097a7	3.2592561
132	0x3e523f35	0.20531924
133	0x4038005a	2.8750215
134	0xbe0ee881	-0.1395588
135	0xbff50c25	-1.9144331
136	0xc012fed0	-2.2968025
137	0xc05f5fcd	-3.4902222
138	0x401bdeee	2.4354815
139	0xc02aad47	-2.666826
140	0x3d486a70	0.04892963
141	0x3e744212	0.23853329
142	0x3e72b38e	0.23701307
143	0xbd9fd604	-0.07804492
144	0x3dfe4f28	0.124174416
145	0xbd0af378	-0.033923596
146	0xbe8aa7d1	-0.2708116
147	0xbe5d2cae	-0.21599075
148	0xbe3df970	-0.18552184
149	0xbdfda302	-0.12384607
150	0xbe4b3660	-0.19844961
151	0xbdb35d6a	-0.08758052
152	0xbe63a427	-0.22230588
153	0x3e265458	0.16243112
154	0x3e425cc2	0.18980697
155	0xbe06891b	-0.13138239
156	0xbe6c4e4e	-0.23076746
157	0xbe39028d	-0.1806738
158	0xbdb10750	-0.08643973
159	0xbd617758	-0.055045456

bias f4 [16]
0	0x3db97805	0.09056095
1	0xbdfff78e	-0.12498389
2	0xbe45e864	-0.19326931
3	0xbe511990	-0.20419908
4	0x3ec63378	0.38711143
5	0xbca35e88	-0.019942537
6	0xbd0d6440	-0.034519434
7	0xbf228519	-0.6348434
8	0x3d9e1964	0.077196866
9	0xbd3156a3	-0.043295514
10	0xbedac0a1	-0.4272509
11	0xbeaebe5a	-0.34129602
12	0xbde2d894	-0.11076465
13	0x3f6df577	0.92952675
14	0xbe39ee03	-0.181572
15	0xbdb84042	-0.08996631

weight f4 [8, 16]
0	0xbe387ec7	-0.18017112
1	0xbdb8d19c	-0.09024355
2	0x3e1c3532	0.15254667
3	0xbe3e89fc	-0.18607324
4	0xbe1f33b3	-0.15547065
5	0x3db850ba	0.08999772
6	0xbe5a67c2	-0.21328643
7	0xbed63d27	-0.4184353
8	0xbd85a123	-0.06524875
9	0xbe88a60e	-0.2668919
10	0xbdaab37f	-0.083350174
11	0xbee24b0a	-0.44197875
12	0xbd9b81b0	-0.07593095
13	0xbef33dd9	-0.47508124
14	0x3dd880b0	0.1057142
15	0x3d8e94c0	0.069619656
16	0xbf20ff6e	-0.62889755
17	0x3c95f510	0.018305331
18	0xbc854820	-0.016269743
19	0xbdf07160	-0.117403746
20	0xbf2885d4	-0.65829206
21	0xbfb533a3	-1.4156383
22	0x3d292bc0	0.04130149
23	0x3f80786b	1.0036749
24	0x3d7e9e7f	0.062162872
25	0x41013005	8.0742235
26	0xc02871a5	-2.6319363
27	0x3f837fb6	1.0273349
28	0xbe29732e	-0.16547844
29	0x4091fa1e	4.561782
30	0x3e67d928	0.22641432
31	0xbad08f00	-0.0015911758
32	0xbe6705f1	-0.2256086
33	0xbda9c6fc	-0.082899064
34	0x3c110240	0.008850634
35	0x3cefbdd0	0.029265314
36	0xbed2283e	-0.41046327
37	0xbe828341	-0.25490764
38	0xb9311800	-0.00016888976
39	0xbd207705	-0.039176006
40	0x3d06f3a9	0.032947216
41	0xbe0237db	-0.1271662
42	0xbec4f0fc	-0.38465106
43	0xbec04b06	-0.37557238
44	0xbe5da138	-0.21643531
45	0xbd60040f	-0.05469137
46	0xbdd3880c	-0.10328683
47	0x3dea3c2c	0.11437258
48	0xbe1fc1c2	-0.15601256
49	0xbe6d2342	-0.23157981
50	0x3c73a2e0	0.014870375
51	0xbe673070	-0.22577071
52	0x3c9ee120	0.019394457
53	0x3d1bd2b0	0.038042724
54	0xbdadbf38	-0.08483738
55	0xbde73ae4	-0.11290529
56	0x3dfb6e48	0.12276894
57	0xbe7aae42	-0.24480537
58	0xbe42cdd4	-0.1902383
59	0x3e0e2954	0.13882953
60	0x3e27680e	0.16348287
61	0xbe6db3ec	-0.23213166
62	0xbc44c5c0	-0.012010038
63	0xbe1b5308	-0.15168393
64	0xbff33fd5	-1.9003855
65	0xbe222aaa	-0.15836588
66	0xbe18b896	-0.14914164
67	0xbe4fa7c0	-0.20278835
68	0x40680ba9	3.6257117
69	0x3ec74651	0.38920835
70	0xbe25e676	-0.16201195
71	0xbfba32d9	-1.4546767
72	0xbe2cffd6	-0.16894469
73	0xc16c6472	-14.774523
74	0x40305f1e	2.7558055
75	0xbf9f812d	-1.2461296
76	0x3e4f76cc	0.20260161
77	0x408619bd	4.190642
78	0x3cb8b220	0.022545874
79	0x3d3f5d28	0.0467197
80	0xbe57a12f	-0.2105758
81	0x3de32c10	0.11092389
82	0x3da75a34	0.08171502
83	0xbdda1648	-0.10648781
84	0xbe82b730	-0.25530386
85	0xbe019fc0	-0.12658596
86	0xbd519548	-0.051167756
87	0xbe454808	-0.19265759
88	0xbe32c286	-0.17457017
89	0xbe1f60f1	-0.15564324
90	0x3deb9900	0.11503792
91	0xbe5ec13a	-0.21753398
92	0x3dfaba5c	0.122425765
93	0x3d2e68a0	0.042580247
94	0xbd6524c8	-0.05594328
95	0x3e12eb28	0.14347517
96	0x3fd7a954	1.684855
97	0x3d9de458	0.07709569
98	0x3e6d1c78	0.23155391
99	0x3e5dc0ce	0.2165558
100	0x3eac73df	0.33682153
101	0xbf974aea	-1.1819737
102	0xbdac68ac	-0.08418402
103	0xbeecec73	-0.46274146
104	0xc06c9f97	-3.6972406
105	0x40d5eb42	6.684968
106	0x3ef2aec1	0.47398952
107	0x3ee908c0	0.45514488
108	0x3e464226	0.19361171
109	0x4020d2de	2.5128703
110	0x3dbde63c	0.09272429
111	0x3e77c2ec	0.2419545
112	0x3e353ffd	0.17700191
113	0x3e3a191a	0.18173638
114	0x3e47ca74	0.19510823
115	0xbe398c5a	-0.18119946
116	0xbf739750	-0.9515276
117	0x3f78b1d8	0.9714637
118	0x3e10d56a	0.14143911
119	0x3eef7d01	0.46775058
120	0x40412ac5	3.0182354
121	0xbfd32068	-1.6494265
122	0x408ff4d0	4.4986343
123	0xbe1d4399	-0.15357818
124	0x3e604e9c	0.21904987
125	0x402fedcf	2.7488897
126	0xbe07e6a2	-0.13271573
127	0x3e5e3da4	0.21703202

bias f4 [8]
0	0xbe605e9b	-0.21911089
1	0x3ef45bd2	0.47726303
2	0xbe970641	-0.2949696
3	0xbe60c04c	-0.21948355
4	0x3ee082b7	0.43849728
5	0xbe2eaba5	-0.17057665
6	0x3f5db54c	0.8660476
7	0xbeb8d41a	-0.3609932

weight f4 [4, 8]
0	0x3e2a978c	0.16659373
1	0xbea29d41	-0.317606
2	0x3ef8071f	0.48442933
3	0x3e7e18c2	0.24814132
4	0xbf015667	-0.50522465
5	0x3e33eb63	0.17570262
6	0x3ff05418	1.8775663
7	0x3f1fd3a8	0.62432337
8	0x3e1c5a41	0.15268804
9	0xbc8c9cc5	-0.017164597
10	0xbe1231be	-0.14276788
11	0x3db57fd4	0.08862272
12	0xbf5b6e2d	-0.8571499
13	0x3d3d0e98	0.046156496
14	0xbf51139e	-0.8167056
15	0x3fe05e32	1.7528746
16	0x3e9e5569	0.30924538
17	0xbd304dca	-0.043042935
18	0xbd0fe118	-0.035126776
19	0xbdd324f0	-0.1030978
20	0xbe1aa7fe	-0.15103146
21	0xbe00b801	-0.12570192
22	0xbd19b2b4	-0.03752394
23	0xbe6b9ef1	-0.2300985
24	0xbafdf4d7	-0.0019375336
25	0x3fc58c2c	1.5433402
26	0xbe2da10c	-0.16955966
27	0x3e3ef2a6	0.1864725
28	0xbfd3762f	-1.6520442
29	0x3e877b73	0.26461372
30	0xbd7baec0	-0.06144595
31	0xbee3757d	-0.44425574

bias f4 [4]
0	0x3d5c82c6	0.053835653
1	0x3f9ddee6	1.2333648
2	0xbe9892e4	-0.2979957
3	0x3fdd875d	1.7306935

weight f4 [16, 10]
0	0x3e39a51c	0.1812939
1	0xbe08ff1d	-0.13378568
2	0xbedb5736	-0.42839974
3	0xbecc6f19	-0.3992851
4	0x3e07b6c3	0.13253312
5	0x3c9a7caf	0.018858282
6	0x3c38b8c9	0.011274525
7	0xbd40b522	-0.04704774
8	0xbecf7f6c	-0.40526903
9	0xbe977db6	-0.29588097
10	0x4070e340	3.7638702
11	0x3fa17427	1.2613572
12	0x3e468cb8	0.19389617
13	0x3da175d8	0.07883805
14	0xbfc0019c	-1.5000491
15	0xc0036718	-2.0531673
16	0xc02632f2	-2.5968595
17	0xc02248ab	-2.5356853
18	0x3fea0557	1.828288
19	0x3e8a539c	0.27016914
20	0x4097532d	4.7289033
21	0xbeb4f84e	-0.3534569
22	0xc0097ab3	-2.148114
23	0xc034191c	-2.8140326
24	0xbecff512	-0.4061666
25	0x3fad40de	1.3535421
26	0x3f2150e1	0.63014036
27	0x3e3c4291	0.18384768
28	0x401c1971	2.4390528
29	0x3fc5733a	1.5425789
30	0x3fa81f95	1.3134638
31	0x3f79f580	0.9764023
32	0x4063681a	3.5532289
33	0x3f909fc3	1.1298755
34	0x4008a58e	2.1351047
35	0xbfb43bd8	-1.4080763
36	0xbf415822	-0.75525105
37	0x3f59e0e0	0.85108757
38	0xc032bce9	-2.7927802
39	0xc09af7d9	-4.842755
40	0x3f635c13	0.8881237
41	0x4038940b	2.8840358
42	0xbf40213c	-0.7505071
43	0x40a5cd04	5.1812763
44	0x3fcde138	1.6084356
45	0xbf7f99a8	-0.99843836
46	0xbf505bd3	-0.8139011
47	0xbfb7ee05	-1.4369513
48	0xbf26c27f	-0.6514053
49	0xbe32c2ed	-0.17457171
50	0xbe8111d4	-0.25208914
51	0x3d832087	0.064026885
52	0xbe60728d	-0.21918698
53	0xbe0c0d05	-0.13676842
54	0xbe5d14fd	-0.21590038
55	0x3d23c577	0.03998324
56	0x3e9b67c0	0.30352592
57	0x3db211a3	0.0869477
58	0x3e54f49a	0.20796433
59	0xbe5d89fd	-0.2163467
60	0x3e019b9f	0.12657021
61	0x3e1efa5a	0.15525189
62	0xbd93f915	-0.07225243
63	0x3dfbb031	0.12289465
64	0xbe0a444b	-0.13502614
65	0xbe31573c	-0.17318434
66	0xbceaceae	-0.028663006
67	0xbea83731	-0.32854608
68	0x3e0fa67c	0.14028352
69	0x3c9ac501	0.018892767
70	0xbda6049e	-0.081063494
71	0x3e9c22ef	0.30495402
72	0xbdb40606	-0.087902114
73	0xbe3329ce	-0.17496416
74	0xbc851bc0	-0.016248584
75	0xbe4ac6f6	-0.1980246
76	0xbc81e160	-0.015854537
77	0x3df193e4	0.11795786
78	0x3e69e8de	0.22842738
79	0xbe5da196	-0.21643671
80	0x3e83be15	0.2573096
81	0xbe93354f	-0.2875161
82	0xbd3d3828	-0.046196133
83	0x3e022dfa	0.12712851
84	0xbda03204	-0.0782204
85	0x3e3787c6	0.17922887
86	0xbe84427f	-0.25831982
87	0x3d2559c8	0.040368825
88	0xbe86b9c7	-0.26313612
89	0x3d5f0288	0.054445773
90	0xc026a882	-2.604035
91	0x3e56b847	0.20968734
92	0xbeb5bd9a	-0.35496217
93	0x3f78ce1a	0.97189486
94	0xc011d9c4	-2.2789164
95	0xbff1c2de	-1.8887594
96	0xbf0f3a90	-0.55948734
97	0xbeed2b35	-0.46322027
98	0x3ff42b50	1.9075718
99	0x3fd7f6c6	1.6872184
100	0xc0c550ca	-6.166112
101	0xc04cadeb	-3.198115
102	0x40d017b1	6.502892
103	0x401b75b7	2.4290597
104	0xbf4e7961	-0.8065396
105	0x3ecd5fbf	0.4011211
106	0x3ef70c80	0.48251724
107	0xbee6e5ed	-0.45097294
108	0xbf943e1b	-1.1581453
109	0x3feba0eb	1.8408483
110	0x408b5f45	4.3553796
111	0x40197eeb	2.3983715
112	0x4063c85a	3.5591035
113	0x4028814b	2.6328914
114	0xbfcc6161	-1.5967218
115	0xbf713311	-0.94218546
116	0xbf1192f2	-0.56864846
117	0xbe9218f2	-0.28534657
118	0x3fa970ec	1.3237586
119	0x3fdac394	1.7090936
120	0x3e039c7e	0.12852666
121	0xbdf8a0d9	-0.12140054
122	0x3dd162ad	0.10223899
123	0xbe3b5472	-0.18293932
124	0x3da46bb5	0.08028356
125	0xbe5d96a9	-0.21639504
126	0xbce28574	-0.027651526
127	0x3e7532f8	0.23945224
128	0x3df7178d	0.12065039
129	0xbe7f38bf	-0.2492399
130	0xc110f52d	-9.059857
131	0xc08dcf0b	-4.431524
132	0x40107086	2.256868
133	0xbffde1ba	-1.9834511
134	0xbfca4e11	-1.5805074
135	0x3e98eb2e	0.29866928
136	0x3e407faf	0.18798707
137	0x3fd6d47b	1.6783594
138	0x3f4a868e	0.79111564
139	0x40005cdf	2.0056684
140	0xbf8184e2	-1.0118678
141	0x3fd82243	1.6885456
142	0xbf478b36	-0.77946794
143	0x4011197a	2.26718
144	0x3f6c1c7c	0.92230964
145	0xbf095f77	-0.5366129
146	0x3d84d19a	0.06485291
147	0xbfaeaddf	-1.3646811
148	0xc075abf4	-3.8386202
149	0xbf3ebbed	-0.745055
150	0xc097b8ce	-4.741309
151	0xbffada76	-1.9597919
152	0x3f9c96db	1.2233537
153	0x4044cbc9	3.074938
154	0x4008cd12	2.1375165
155	0x3fbe0ec2	1.4848254
156	0x3e77e916	0.24210009
157	0xbf151c80	-0.5824661
158	0x3f3fd6a8	0.74936914
159	0x3f56cd7b	0.8390729

bias f4 [16]
0	0xbe761427	-0.24031125
1	0x3f83e157	1.0303143
2	0xbf1709b1	-0.5899916
3	0x3ec32439	0.38113573
4	0x3dc6e437	0.09711497
5	0xbed21b42	-0.4103642
6	0xbecc7896	-0.3993575
7	0xbd341038	-0.04396078
8	0xbd8389a8	-0.0642274
9	0x3f840107	1.0312814
10	0x3e34ba6d	0.17649241
11	0x3db43e5f	0.08800959
12	0xbe01a7d2	-0.12661675
13	0x3e3c0778	0.18362224
14	0x3f6716a0	0.902689
15	0xbf703b5b	-0.9384057

weight f4 [8, 16]
0	0xbe1252a8	-0.14289343
1	0xc0cc7500	-6.389282
2	0xbf9eb4ae	-1.2398889
3	0xc1058e95	-8.34731
4	0xbf43fc0a	-0.76556456
5	0x3ddff1a9	0.10934765
6	0x3d136a40	0.03599
7	0xbe754f10	-0.23955941
8	0xbd872328	-0.065985024
9	0x3e7d2333	0.24720459
10	0x4035cf4c	2.8407774
11	0xbedd25bd	-0.43192855
12	0xbd89d1dc	-0.067294806
13	0x3fd89562	1.6920588
14	0x3f4f16e7	0.8089432
15	0x4019ec95	2.4050648
16	0x3ddd950d	0.10819445
17	0x3da331a8	0.079684556
18	0x3db0cd98	0.08632964
19	0x40779e2e	3.8690295
20	0xbf200c6e	-0.62518966
21	0xbe1c8183	-0.1528378
22	0xbc94d8ad	-0.018169725
23	0xbd5f5d50	-0.05453235
24	0x3ccbe960	0.024891555
25	0xbd94cd30	-0.07265699
26	0x3fb12f14	1.3842492
27	0xbed98469	-0.42483833
28	0x3e5ab023	0.21356253
29	0x4049bd08	3.1521626
30	0xbf38158b	-0.7190787
31	0xbfe76457	-1.8077496
32	0x3e5105dd	0.20412393
33	0xc01fbf65	-2.4960568
34	0xbdf1646e	-0.117867336
35	0xc022a4aa	-2.5413003
36	0xc0066bf4	-2.100339
37	0xbe769f79	-0.24084271
38	0x3f001d05	0.5004428
39	0xbde81c24	-0.113334924
40	0xbd0dba68	-0.0346016
41	0xbf78fe69	-0.972632
42	0x40268f98	2.6025143
43	0xbf49ceaa	-0.7883097
44	0xbe50214f	-0.20325206
45	0x3e68c238	0.22730339
46	0xbe1dde62	-0.15416864
47	0x3ee6c499	0.45071867
48	0xbe66136a	-0.22468343
49	0x3c75fc14	0.015013713
50	0x3c8c1a63	0.017102426
51	0xbfcd72d5	-1.6050669
52	0xbf532a8e	-0.8248681
53	0x3eaa6b52	0.33285004
54	0x3e50c9af	0.20389436
55	0xbe1e4bde	-0.15458629
56	0xbca4a0f0	-0.020096272
57	0x4021ed63	2.530114
58	0xbfdd0902	-1.7268374
59	0xbff912e2	-1.9458888
60	0xbe6aeae9	-0.22941174
61	0x40083a3c	2.1285543
62	0x3dc5ce4a	0.09658487
63	0xbdcbd70d	-0.09953127
64	0xbe346902	-0.17618182
65	0x3fa4883c	1.2854075
66	0xbfb42076	-1.4072406
67	0x3fce5425	1.6119429
68	0x3fb86fa5	1.4409071
69	0xbd5f4d91	-0.054517332
70	0xbc91d616	-0.01780228
71	0x3dfe0928	0.1240409
72	0x3d15a8f8	0.036538094
73	0x3fc3a61f	1.5285071
74	0x3fd6050e	1.6720293
75	0xbe30a4a4	-0.17250305
76	0x3dedb16d	0.11606107
77	0xbf745737	-0.9544558
78	0x3fa72ca0	1.3060493
79	0xbf74b848	-0.9559369
80	0xbc2a723f	-0.010403215
81	0xbe9a7eb5	-0.30174795
82	0xbf4ea8fd	-0.80726606
83	0xbe5754d6	-0.21028456
84	0x3f3bdf88	0.73387957
85	0xbdfcec52	-0.12349762
86	0xbdded875	-0.1088113
87	0x3e55ef7a	0.20892134
88	0xbe5b68e0	-0.21426725
89	0x3facf1d1	1.3511297
90	0x404b90dc	3.1807165
91	0x3f9197d1	1.1374456
92	0x3dcf4172	0.101199046
93	0x3f898b65	1.0745665
94	0x3f852987	1.0403298
95	0xbddb95c8	-0.10721928
96	0xbd949ba4	-0.072562486
97	0xbf35cd3c	-0.7101629
98	0x3f83c589	1.0294658
99	0xbfa3fe64	-1.2812009
100	0xbe38133e	-0.1797609
101	0x3db6bd05	0.08922771
102	0x3e4ebe14	0.20189697
103	0x3d947548	0.07248932
104	0xbe51c1ce	-0.20484087
105	0xc01fac7c	-2.4949026
106	0x3f03d7de	0.5150126
107	0x3f32d7cc	0.6986053
108	0x3e668361	0.22511055
109	0xc09c693c	-4.887846
110	0xc0cd5509	-6.4166303
111	0x403096c0	2.759201
112	0xbdb7631c	-0.089544505
113	0x4027e109	2.62311
114	0xc037c2be	-2.8712611
115	0x404351b6	3.0518622
116	0x4003d603	2.0599372
117	0x3f494f21	0.78636366
118	0x3dbb4aea	0.09145148
119	0x3dc408d8	0.09571999
120	0xbd950684	-0.072766334
121	0x3f61cb6d	0.8820103
122	0x402b4fc1	2.6767428
123	0xc005c12b	-2.089915
124	0x3e31a682	0.17348674
125	0xbf2a19f0	-0.6644583
126	0x3fced74a	1.6159451
127	0x3e13eab6	0.14445004

bias f4 [8]
0	0xbf8151fd	-1.0103146
1	0x3f456940	0.77113724
2	0x3f8d6258	1.1045637
3	0x3f180fd1	0.59399134
4	0x3f147693	0.5799343
5	0x38a1100c	7.680067e-05
6	0xc00f556f	-2.2395895
7	0xbe4bf852	-0.19918945

weight f4 [4, 8]
0	0xbff5e700	-1.9211121
1	0x3fa72139	1.3057014
2	0xbf18c8f0	-0.59681606
3	0xbdf8d402	-0.12149812
4	0x3f0628c2	0.5240594
5	0x3f42dd54	0.7611897
6	0xc047af78	-3.1200848
7	0xc02c99f8	-2.6968975
8	0x3d84dd58	0.064875305
9	0xbec85ca8	-0.3913319
10	0x3e4b3cc2	0.19847396
11	0xbfbd4770	-1.4787426
12	0x3f61aa8b	0.8815085
13	0x3f074799	0.52843624
14	0xbef9f0bb	-0.48816475
15	0x3f0d0f46	0.5510143
16	0x3f4064db	0.75153893
17	0x3e3de1d5	0.1854318
18	0x3f8fad12	1.1224692
19	0xbf1a6ea9	-0.60325104
20	0xbf82e013	-1.0224632
21	0x3fceae57	1.6146954
22	0xbf405c19	-0.7514053
23	0xbf90c017	-1.1308621
24	0xc0681ac9	-3.6266348
25	0xbfe598b9	-1.7937232
26	0xc033acaf	-2.8074148
27	0x3ec3a06f	0.3820834
28	0xbf4f6d04	-0.8102572
29	0x3f734d0a	0.9503943
30	0x3f0269fc	0.5094297
31	0xbf3131a7	-0.6921639

bias f4 [4]
0	0x3ead5b0e	0.33858532
1	0x3f93405f	1.150402
2	0xbf207a6d	-0.62686807
3	0x3fe4aa19	1.786441

weight f4 [16, 10]
0	0xbd5c2cf0	-0.053753793
1	0xbe5c773e	-0.21529862
2	0x3e0abd18	0.13548696
3	0x3e2f6978	0.17130077
4	0x3e43ece6	0.19133338
5	0xbe2a447d	-0.16627689
6	0xbc346420	-0.0110102
7	0x3e5e3fea	0.21704069
8	0xbe56a750	-0.20962262
9	0x3e30add2	0.17253807
10	0x3e9ba00b	0.3039554
11	0x3e916dfb	0.2840422
12	0x3e711b1a	0.23545495
13	0xbe567cc3	-0.2094603
14	0xbdfad476	-0.12247555
15	0xbe76e766	-0.24111709
16	0x3c48ec20	0.012263328
17	0xbcbf23b0	-0.023332447
18	0x3e3c9b6e	0.18418667
19	0xbe36f2fb	-0.17866127
20	0xbe79bb7e	-0.24387929
21	0xbe248399	-0.16065826
22	0x3e620e8e	0.22075865
23	0x3de82ae8	0.11336309
24	0x3cc2b2e0	0.023766935
25	0xbe7e8093	-0.24853735
26	0x3d394e48	0.04524067
27	0x3e940d23	0.28916273
28	0xbdf2263a	-0.118236974
29	0x3d9ca560	0.0764873
30	0xbdb31dbc	-0.08745906
31	0x3ce4ac60	0.027914226
32	0xbe47f360	-0.19526434
33	0x3d22e470	0.039768636
34	0x3e493f42	0.19653037
35	0x3e0e9092	0.13922337
36	0xbda2124a	-0.079136446
37	0xbe17a01c	-0.1480717
38	0x3e8c9cb3	0.27463302
39	0x3d849a20	0.064747095
40	0xbe781123	-0.24225287
41	0xbe50f058	-0.20404184
42	0x3e9f0e0d	0.31065407
43	0x3e17a7ba	0.14810076
44	0xbe8803cf	-0.26565406
45	0xbe99a9d6	-0.30012387
46	0xbe0fedd5	-0.1405557
47	0x3e5f39c6	0.21799383
48	0xbd39d100	-0.045365334
49	0xbe789cc6	-0.24278554
50	0x3e9a058f	0.30082366
51	0x3e4ad562	0.19807962
52	0xbe883e68	-0.26610112
53	0x3e95a82b	0.29229864
54	0x3db68a20	0.08913064
55	0x3e0566e8	0.13027537
56	0xbe8fbbaa	-0.28072864
57	0x3e4871ba	0.19574633
58	0x3d9eccc4	0.077539
59	0x3e02237c	0.12708849
60	0x3e7d3152	0.24725845
61	0xbe49d80d	-0.19711323
62	0xbe84ae9e	-0.25914472
63	0xbe30671d	-0.17226835
64	0xbd458b08	-0.048228294
65	0xbe9c3502	-0.30509192
66	0xbd1de280	-0.038546085
67	0xbcc4b7c0	-0.0240134
68	0xbe8e5449	-0.2779868
69	0xbdc07d1a	-0.09398861
70	0x3e063848	0.13107407
71	0xbe890786	-0.26763552
72	0xbde85216	-0.11343782
73	0x3e031538	0.12801063
74	0x3bdebd00	0.006797433
75	0xbe270609	-0.16310896
76	0xbceeb870	-0.029140681
77	0xbe8e6c3f	-0.2781696
78	0x3e411daa	0.18858972
79	0x3def85b0	0.11695421
80	0xbdd3e4ae	-0.103463516
81	0x3d42c200	0.047548294
82	0x3d59d7c8	0.0531843
83	0xbe5e7439	-0.21724023
84	0x3e46548a	0.19368187
85	0xbe06e0c5	-0.1317168
86	0x3cb774e0	0.022394598
87	0xbe4f59a3	-0.20249037
88	0x3e3f9cee	0.18712208
89	0xbe040b83	-0.12895016
90	0x3e638a62	0.22220758
91	0x3e279688	0.16366017
92	0x3d94baf8	0.07262224
93	0x3dfb22a4	0.122624665
94	0x3e85db4b	0.2614387
95	0xbe9e8916	-0.30963963
96	0xbe35f496	-0.17769083
97	0x3df1ebd8	0.11812562
98	0x3ddfcca0	0.10927701
99	0xbe0bcd4b	-0.13652532
100	0x3e9176c5	0.28410926
101	0x3e98e9c1	0.2986584
102	0xbe884186	-0.2661249
103	0x3e7a2fba	0.24432269
104	0x3dc2141c	0.09476492
105	0xbe79ac62	-0.24382165
106	0xbd635dc8	-0.05550936
107	0x3e3d5416	0.18489107
108	0xbd365fc0	-0.044524908
109	0xbc864b20	-0.016393244
110	0x3e7a6b7e	0.24455068
111	0xbe834266	-0.25636595
112	0xbdc169c2	-0.09444
113	0xbe84ed95	-0.2596251
114	0x3d3b8e88	0.045790225
115	0x3e709da2	0.23497632
116	0x3d8e0530	0.06934583
117	0x3d44f020	0.048080564
118	0xbe9cc50c	-0.30619085
119	0xbe80aae3	-0.25130376
120	0x3e8433b5	0.258207
121	0xbe956293	-0.2917677
122	0x3dd78900	0.105241776
123	0xbd41aeb0	-0.047285736
124	0x3dc00410	0.09375775
125	0x3e6d511e	0.23175475
126	0x3e8665d7	0.26249573
127	0x3e21071a	0.15725365
128	0xbe515eba	-0.20446292
129	0x3e21ca00	0.15799713
130	0x3da9e548	0.08295685
131	0xbe74fd46	-0.23924741
132	0xbe885956	-0.26630658
133	0xbe8ef953	-0.27924594
134	0x3e0eb374	0.13935643
135	0x3e909d7f	0.2824516
136	0xbdd737f8	-0.10508722
137	0xbd704530	-0.058659732
138	0xbe82701e	-0.25476164
139	0xbe7b213e	-0.245244
140	0xbe9b9eff	-0.30394742
141	0xbbaaa280	-0.00520736
142	0x3e8207df	0.2539663
143	0x3d29c4f8	0.04144761
144	0xbe4b8b78	-0.19877422
145	0xbe2c1351	-0.16804244
146	0xbe2e1255	-0.1699918
147	0x3ab8b100	0.0014090836
148	0xbe821a6c	-0.25410783
149	0xbe18e355	-0.1493047
150	0xbd9b5a0c	-0.075855345
151	0xbe8c9388	-0.27456307
152	0xba859700	-0.0010192096
153	0x3db75498	0.08951682
154	0xbe80c2a6	-0.25148505
155	0x3dd1f004	0.102508575
156	0xbe9792f7	-0.29604313
157	0xbe1699de	-0.14707133
158	0xbd037d58	-0.03210196
159	0xbdd8075a	-0.10548277

bias f4 [16]
0	0xbda4febe	-0.08056401
1	0x3e8bf399	0.27334288
2	0x3e23a582	0.15981105
3	0xbe154a8e	-0.14579222
4	0xbdc80366	-0.09766273
5	0xbe6d7a92	-0.23191288
6	0xbdb73c70	-0.089470744
7	0xbc435f40	-0.011924565
8	0xbe499843	-0.1968699
9	0x3dc97c54	0.09838167
10	0x3d5dda78	0.054163426
11	0x3dbf6ef0	0.093473315
12	0x3e279220	0.16364336
13	0xbe645cbb	-0.22300999
14	0x3e54721e	0.20746657
15	0x3d91b29c	0.07114145

weight f4 [8, 16]
0	0x3e3e6818	0.18594396
1	0xbdb464ac	-0.08808264
2	0x3e142952	0.14468887
3	0xbc41d220	-0.011829883
4	0xbda8fe1c	-0.082515925
5	0x3e378408	0.1792146
6	0x3b2da200	0.0026494265
7	0xbe2d83d8	-0.16944826
8	0xbe6d4e2c	-0.23174351
9	0xbbe91c00	-0.0071139336
10	0xbe275958	-0.16342676
11	0xbdf5ee74	-0.12008372
12	0xbd0c3208	-0.0342274
13	0x3a024000	0.0004968643
14	0xbdebd8f4	-0.1151599
15	0x3c0b8120	0.0085146725
16	0x3e6fd916	0.23422655
17	0xbe693232	-0.22773054
18	0x3d9b357c	0.07578561
19	0xbc161c20	-0.009161979
20	0xbe4ba2e0	-0.1988635
21	0x3d2c9020	0.042129636
22	0x3e71333e	0.23554704
23	0xbe7660c4	-0.2406035
24	0xbdb41060	-0.08792186
25	0xbe242dd2	-0.16033104
26	0x3e512dde	0.20427653
27	0x3db5befc	0.08874318
28	0x3e12632e	0.14295647
29	0xbe627030	-0.22113109
30	0x3d0408f0	0.032235086
31	0xbe57735c	-0.210401
32	0x3e1d1796	0.15341029
33	0xbd5ddec8	-0.05416754
34	0xbe6dd780	-0.23226738
35	0xbe5b6fb2	-0.21429327
36	0xbe40b8c0	-0.18820477
37	0xbe3fc520	-0.18727541
38	0x3c8dab80	0.017293692
39	0x3e2c08c4	0.16800219
40	0x3cb90d80	0.022589445
41	0xbdd86fa4	-0.10568169
42	0x3de6d458	0.1127097
43	0x3d8ac050	0.06774962
44	0xbc803950	-0.015652329
45	0x3c76a6e0	0.015054435
46	0xbe390970	-0.18070006
47	0x3d2edbb8	0.04269001
48	0x3d83d270	0.06436622
49	0x3e242b70	0.16032195
50	0x3e2df0c2	0.16986373
51	0xbcc151b0	-0.023598522
52	0xbe584b12	-0.21122387
53	0xbe61f4ac	-0.22065991
54	0x3d445188	0.047929317
55	0xbe50f28e	-0.20405027
56	0x3e74ffe4	0.2392574
57	0xbe7d3946	-0.2472888
58	0xbdf8412c	-0.121218055
59	0xbcb371f0	-0.021904916
60	0x3e720182	0.23633388
61	0x3d099eb0	0.0335986
62	0x3e037e78	0.12841213
63	0xbdf6c9f0	-0.12050235
64	0xbe737d2a	-0.23778215
65	0x3d42aa20	0.047525525
66	0xbd04eb00	-0.032450676
67	0x3d288ec0	0.041151762
68	0xbd900448	-0.070320666
69	0xbe45e8ee	-0.19327137
70	0xba26f800	-0.00063693523
71	0x3bab3a80	0.0052254796
72	0x3d14dee0	0.036345363
73	0x3dd34424	0.10315731
74	0xbc9d8d40	-0.019232392
75	0x3e58ff06	0.21191034
76	0xbe448f2c	-0.1919524
77	0xbde21770	-0.110396266
78	0xbe07cdae	-0.13262054
79	0xbe30bdfc	-0.17259973
80	0x3e0ff354	0.14057666
81	0x3dbf65d8	0.09345597
82	0xbe254f02	-0.1614342
83	0xbe5a4366	-0.21314773
84	0x3cb29150	0.021797806
85	0xbe04cc82	-0.12968639
86	0xbcec3000	-0.028831482
87	0x3e2ff25c	0.17182297
88	0x3cabe050	0.020980984
89	0x3caa84c0	0.020815253
90	0xbddeef70	-0.10885513
91	0xbd2868d0	-0.041115582
92	0xbe307286	-0.17231187
93	0x3dc0fe20	0.094234705
94	0xbe063014	-0.13104278
95	0xbb785b00	-0.0037896037
96	0xbde67b60	-0.11254001
97	0xbdde38e8	-0.10850698
98	0xbdbaa1e0	-0.091129065
99	0x3d83db64	0.0643833
100	0x3e73341c	0.23750347
101	0xbe3f2b66	-0.18668899
102	0xbd54c070	-0.051941335
103	0xbe10731e	-0.14106414
104	0x3e651622	0.22371724
105	0x3d80d594	0.06290737
106	0x3e2cf8ba	0.16891757
107	0xbe54e0b8	-0.20788848
108	0xbe5ed07a	-0.21759215
109	0xbba11e40	-0.004916936
110	0xbe672686	-0.2257329
111	0xbcfff4a0	-0.031244576
112	0x3d33a658	0.04385981
113	0xbe32e2cc	-0.17469329
114	0xbe4622a2	-0.19349149
115	0x3d810604	0.062999755
116	0xbe68caac	-0.22733563
117	0xbd99c5d4	-0.07508436
118	0x3e6dca96	0.23221812
119	0xbe6ea38e	-0.23304579
120	0xbe1e8798	-0.15481412
121	0x3e023952	0.12717178
122	0x3b974140	0.0046159327
123	0x3e5687ba	0.20950213
124	0xbe0aa79c	-0.135405
125	0x3e2f3dba	0.1711339
126	0xbe5b2b36	-0.21403202
127	0xbe541b0e	-0.20713446

bias f4 [8]
0	0xbe2363c0	-0.1595602
1	0x3ca6fd00	0.020384312
2	0xbe7179ce	-0.23581621
3	0xbe1e41a8	-0.15454733
4	0xbe054ee0	-0.1301837
5	0xbe4106aa	-0.18850198
6	0xbe087302	-0.13325122
7	0xbd209988	-0.03920892

weight f4 [4, 8]
0	0xbd4d54d0	-0.05012971
1	0xbea1adf3	-0.31578025
2	0xbe84390d	-0.25824776
3	0x3dd19290	0.10233033
4	0x3e127cfa	0.14305487
5	0x3eadf8d5	0.33978906
6	0xbe3a5f58	-0.18200433
7	0xbe291538	-0.16512
8	0x3d1e7338	0.0386841
9	0xbe1bd280	-0.15217018
10	0x3c1c7140	0.009548485
11	0x3e7f647e	0.24940678
12	0x3e11a880	0.14224434
13	0x3e41b9ca	0.18918529
14	0x3e7ab14e	0.24481699
15	0xbe08aace	-0.13346407
16	0x3d95e758	0.07319516
17	0xbe21a575	-0.15785773
18	0xbdb313d4	-0.08744016
19	0x3d82bb94	0.06383434
20	0x3d5bda48	0.053674966
21	0xbe0c90d7	-0.13727127
22	0xbddb5cfc	-0.10711095
23	0x3e2505d2	0.16115502
24	0xbe843262	-0.2581969
25	0xbe17f876	-0.14840874
26	0xbe6493f5	-0.22322066
27	0xbea70676	-0.32622117
28	0xbe20435a	-0.15650693
29	0x3ead3195	0.3382689
30	0xbe9c6b12	-0.30550438
31	0xbe463771	-0.19357087

bias f4 [4]
0	0xbe69bbcb	-0.22825544
1	0xbc397dc0	-0.011321485
2	0xbea4404f	-0.32080314
3	0xbd38e020	-0.045135617

weight f4 [4, 2]
0	0xbee11c10	-0.43966722
1	0xbd0036c0	-0.031302214
2	0xbef296a0	-0.47380543
3	0xbe1dff48	-0.15429413
4	0xbd8d2338	-0.06891483
5	0x3f04f353	0.51933783
6	0x3e5a001a	0.21289101
7	0x3f797bb2	0.9745437

bias f4 [4]
0	0xbebd8ea9	-0.37022904
1	0x3df91238	0.12161678
2	0xbe15b060	-0.14618063
3	0xc144c44d	-12.297925

weight f4 [4, 4]
0	0x3deb8aa8	0.11501056
1	0xbe023e00	-0.12718964
2	0x3d18aff0	0.037277162
3	0xbe3d90c4	-0.18512255
4	0x3e5e5cec	0.21715134
5	0xbec53a8e	-0.38521236
6	0x3e340424	0.17579705
7	0xbb9efd0f	-0.0048519443
8	0xbe77765c	-0.24166244
9	0xbea6c70c	-0.32573736
10	0xbed82296	-0.42213887
11	0xbe812552	-0.25223786
12	0x3e9580be	0.29199785
13	0xbd4ac0c0	-0.049500227
14	0xbcb58fc0	-0.022163272
15	0x3e735c7c	0.23765749

bias f4 [4]
0	0xbe562d7c	-0.20915788
1	0x3e22acbb	0.15886204
2	0x3ea87864	0.3290435
3	0xc1101c93	-9.006976

weight f4 [2, 4]
0	0xbcad9de0	-0.021193445
1	0x3edc629d	0.43043986
2	0x3e250060	0.16113424
3	0x3935b6cc	0.00017329602
4	0x3de9bb40	0.11412668
5	0x3e6e9c8b	0.23301904
6	0xbe632a94	-0.22184211
7	0x3e89bb72	0.26900822

bias f4 [2]
0	0xbf074a48	-0.5284772
1	0xc0b6e71b	-5.715711
