mdl_pars.pth (torch, 24947 bytes, 37 tensors)

weight f4 [12, 10]
000000 97 6d 44 3f fc 10 15 3f e2 60 8a bf 80 0b 72 bf
       0.7672972 0.5822904 -1.0810816 -0.945488
000010 c8 e3 95 3e fc 12 fd be 32 2c 37 3d e3 a5 29 be
       0.29275346 -0.49428546 0.044719882 -0.16567187
000020 62 9a 41 3f 46 0e 46 3e cf b7 ab 3f e0 50 bd 3e
       0.75626194 0.19341382 1.3415469 0.36975765
000030 19 60 41 be a9 fa af be 51 9b 6e 3f 6a 7f 0e be
       -0.18884315 -0.34370926 0.93205744 -0.13915792
000040 6f 88 dd bd 3b 31 17 bf 4c 2b a8 3e 13 68 3b 3e
       -0.10817038 -0.59059495 0.32845533 0.1830142
000050 23 7d a4 3f 75 be 77 3f a3 1a f3 3f 7b 9c 58 3f
       1.2850689 0.9677499 1.8992504 0.8461377
000060 d7 ca 27 be 9d 1f 84 3e 28 02 4a bc b7 d9 66 be
       -0.16385971 0.2580537 -0.012329616 -0.22543989
000070 a5 c5 eb be 90 bf 2c bf e1 c2 b6 3f af 97 88 be
       -0.46049228 -0.674798 1.4278222 -0.26678225
000080 9e e8 85 be 0f 64 81 bf d0 23 df 3e 09 10 5f be
       -0.26154035 -1.010866 0.4358201 -0.2178346
000090 ac 0b 29 be 39 cd fa be 4f 1a d1 be fb e0 0d bf
       -0.16508359 -0.48984697 -0.40840384 -0.5542142
0000a0 4b 9d ca 3f 3c e6 03 3f be 7f d9 be 97 64 32 bf
       1.5829252 0.51523185 -0.42480272 -0.6968474
0000b0 b7 56 c1 3e ab c6 c0 be a9 34 36 be a6 a8 4a be
       0.3776147 -0.37651572 -0.17793526 -0.19790897
0000c0 1c c4 d4 3e 3f b7 b1 bd 90 3a be 3d 12 19 42 3e
       0.4155587 -0.086775295 0.09288514 0.18954876
0000d0 fc 0b 9c bd 41 a1 0f be 3d 74 15 be a0 3d f7 bc
       -0.07619473 -0.14026357 -0.14595123 -0.030180752
0000e0 ba 70 e0 bd 42 c8 1d 3e 10 b0 7d 3d 82 7a a3 bd
       -0.10959001 0.15408424 0.061935484 -0.07982351
0000f0 cf c1 a9 3f 26 96 d0 3d f6 7f aa be 4d 44 a1 be
       1.3262271 0.101848885 -0.3330075 -0.31497422
000100 9e f6 00 3f fc ba 0a bd a1 31 9c be e0 77 30 3d
       0.5037631 -0.03386973 -0.30506614 0.04308307
000110 fa 48 04 3f 2b a2 0a 3d ba 0e be 3f dc 90 f4 3e
       0.51673853 0.03384606 1.4848244 0.4776677
000120 f3 80 45 bf 28 21 31 bf 95 82 c6 3e e3 1c 36 3e
       -0.77149886 -0.6919122 0.387715 0.17784457
000130 30 9b d6 3b ac 5b f9 bd c5 33 ad 3e 6b e8 87 3e
       0.0065492615 -0.12175688 0.3382856 0.26544508
000140 e9 3e 18 3e 49 7c 4d be 4c b8 6b 3e 9f b8 a0 bb
       0.14867748 -0.20066942 0.23019522 -0.004904821
000150 f0 b4 42 bc 1b e8 dc 3d 22 cb fe bc 9e e1 52 3e
       -0.011883959 0.10786458 -0.03110272 0.20593879
000160 42 67 05 3e f4 f3 aa be 6d 0d 9c bf be 4f 61 be
       0.13027671 -0.33389246 -1.2191597 -0.22003075
000170 9d d2 91 bc 15 96 e0 3c d7 aa 20 bf 26 f2 b8 3e
       -0.017800624 0.027415315 -0.6276068 0.36122245
000180 54 dc 8c 3e e9 97 0e 3f 47 b4 bd 3e d0 64 be 3e
       0.27511847 0.55700547 0.37051603 0.3718629
000190 80 5a fe 3f 09 79 86 3f c8 46 28 3f 2d 15 e3 3e
       1.9871368 1.0505687 0.65733004 0.44352093
0001a0 1b 28 c9 3d 37 5c 43 bf 29 ea 3e bf b6 1f 05 bf
       0.09822103 -0.76312584 -0.7457605 -0.5200151
0001b0 0e a1 10 be 0e aa a0 3e 0b 6b 5c 3f 8f da 88 be
       -0.14123937 0.3137974 0.86100835 -0.26729247
0001c0 a2 08 fd bf cb 3f c2 bf e1 cd a7 3d 1d b4 50 bd
       -1.976826 -1.5175718 0.08193565 -0.05095302
0001d0 6e cc ee be a2 4f 77 be 78 3e a6 be af 86 0a bf
       -0.46640342 -0.24151471 -0.32469535 -0.5411176

bias f4 [12]
000000 20 c6 1c 3e 43 7a 9b 3e be 26 8d 3e 6d 51 fc 3e
       0.15309954 0.30366716 0.2756862 0.49280873
000010 8e 80 63 3e 7e ee 9a bd 6d 2e 34 bd f5 42 54 be
       0.22217008 -0.0756502 -0.043989588 -0.20728667
000020 fc 86 ae be e2 af 77 3d 22 d0 85 3e f9 82 3f 3f
       -0.3408736 0.06047047 0.26135355 0.74809223

weight f4 [12, 12]
000000 ef 9a 44 3f 76 6f b4 3e ec ed 8b bf 49 fd fe 3e
       0.7679891 0.35241288 -1.0931983 0.49802616
000010 10 b2 0d 3f 08 62 28 3e cb ca 30 3f 6f e2 27 40
       0.55349827 0.16443646 0.6905944 2.6231954
000020 8c 87 5f be 0b dd fe 3d 72 62 3f c0 f7 ae cf 3e
       -0.21829051 0.12444504 -2.9903836 0.40563175
000030 bf 84 a9 be 74 30 27 3f 16 17 90 3e 54 01 5b 3e
       -0.3310909 0.6530831 0.28142613 0.21387225
000040 07 a6 e7 3e a6 b8 4f 3e 48 a8 34 3f 9b f7 30 40
       0.45243856 0.20285282 0.70569277 2.7651126
000050 23 c1 90 bd cc c1 18 bf a4 eb 55 3f de ab e5 bf
       -0.07068088 -0.5967071 0.83562684 -1.7943075
000060 e2 ee 7b 3d 74 21 71 bd 9a 28 e1 bd 19 6d ce 3d
       0.061507113 -0.058869794 -0.10994072 0.100794025
000070 a1 69 bf 3d 16 cf 62 be 87 4b 36 3c 76 d9 52 be
       0.09346319 -0.2214931 0.011126406 -0.20590767
000080 5f bc 90 be 36 ef 0b bb 99 09 36 3e 73 21 84 be
       -0.28268716 -0.0021352298 0.17777099 -0.2580677
000090 ba 67 29 be 2e e6 c8 bd cc af ff 3d c7 ee 90 be
       -0.16543475 -0.09809528 0.124847025 -0.28307173
0000a0 0a 38 98 bd b2 02 c0 bd 9a 7e 2c 3e de 04 79 be
       -0.074325636 -0.09375514 0.1684517 -0.24318263
0000b0 1c ec ed 3d 9a d4 5c be 4a 1b 01 be 60 bc 77 bd
       0.116173 -0.21565476 -0.12608066 -0.060482383
0000c0 a8 b2 12 bf 23 42 38 3c 3e 4b 24 3f 01 98 8a be
       -0.5730386 0.011246237 0.6417731 -0.27069095
0000d0 17 ac 9a be a2 fd f9 bd 3c 4a 47 3e 51 07 04 bf
       -0.3020942 -0.1220658 0.19461912 -0.51573664
0000e0 64 bf 72 3e 15 a1 45 be 00 3f a6 3f 1b 27 e7 bd
       0.23705822 -0.19299729 1.2987976 -0.11286756
0000f0 6b ef 1e bd 50 91 56 3f 78 75 c9 3e aa 44 04 3f
       -0.038802546 0.8381548 0.39347434 0.51667273
000100 f6 10 01 3f 7c 7b 5a be c4 f5 f8 3e 6a dd 18 40
       0.50416505 -0.21336168 0.48625004 2.388514
000110 f2 9d 7c 3d e2 8a 35 bf 0d d4 6e 3e 14 d5 ca bf
       0.061674066 -0.70915043 0.23323078 -1.5846276
000120 30 d4 03 be 42 f4 06 3e f1 55 77 bc a5 2d 35 be
       -0.12873912 0.13179114 -0.015096174 -0.17693193
000130 24 d7 f9 3d 42 64 12 be d5 57 5f be 4e e6 a7 bd
       0.12199238 -0.14296058 -0.21810849 -0.08198224
000140 83 ce 35 3e 96 dc 9f be c8 6b 1e 3e 30 c0 77 3e
       0.17754559 -0.3122298 0.15470803 0.24194407
000150 df fa f4 3e b6 87 ae bd a7 8a 91 3e 5e 5c 1d c0
       0.4784765 -0.085219786 0.28426096 -2.4587626
000160 5c 13 8d bd 10 66 3d be 4a da 11 3f fa 82 00 c0
       -0.06888458 -0.18495965 0.5697371 -2.0079942
000170 da 2c 06 3e 3e 89 1f 3f eb 0f 7b c0 b0 0d d7 bf
       0.13103047 0.6231879 -3.9228466 -1.6801052
000180 a2 a5 85 3e 7e 2d 87 be 3a 22 e5 bc 89 73 8f be
       0.2610293 -0.26401895 -0.027970422 -0.28017834
000190 6b 3f 89 3e b8 30 87 3e 0e 6d e9 bc 2e 29 d1 bd
       0.26806197 0.26404357 -0.028494384 -0.102129325
0001a0 96 4a 91 bd 6c 24 4d bd c8 53 5f be 61 17 b9 3d
       -0.07094304 -0.050083563 -0.21809304 0.09037662
0001b0 6b 9c c1 3e 62 49 4c 3f d0 71 06 3e bc 64 3c 3f
       0.3781465 0.79799473 0.13129354 0.7359121
0001c0 99 0e 08 3f e6 56 3a be 7d e1 0f 3f fa 25 23 40
       0.53147274 -0.18197212 0.5620344 2.549193
0001d0 9e 7f 86 be 28 e8 15 bf dc b6 c4 3e 36 35 71 bf
       -0.2626924 -0.5855737 0.3842076 -0.9422182
0001e0 e8 e2 ae 3d a2 29 2c 3f fd d0 d4 3e 4d 25 09 3f
       0.08539373 0.67251027 0.41565695 0.5357254
0001f0 3b 7e d5 bd 00 0e 65 3e 4f 34 0e 3f ae 0b 02 40
       -0.10424467 0.22368622 0.55548567 2.0319629
000200 84 28 e8 bb b3 60 41 bf 56 cc 74 3f 42 e7 d8 bf
       -0.007084908 -0.75538176 0.9562429 -1.6945574
000210 33 da 6b be ae b4 10 3f bd 3c ef 3e b8 0a 4b 3e
       -0.23032455 0.56525695 0.46726027 0.19828308
000220 34 88 9e bd 88 5d 0e bd f9 a0 0a 3f 2b a5 29 40
       -0.077408224 -0.034757167 0.54151875 2.650706
000230 ba 88 e4 3b 4b 70 dc be dd 7b 97 3e 32 ed 91 bf
       0.006974307 -0.43054423 0.29586688 -1.1400511

bias f4 [12]
000000 93 cf 1d be ef 7c bb 3e fc f3 42 be ee 66 24 be
       -0.15411215 0.36618754 -0.19038385 -0.1605489
000010 6e f5 ca 3d 0e 49 28 3e 27 05 95 be 86 83 cf 3e
       0.09910093 0.16434118 -0.29105493 0.40530032
000020 c2 cb a8 3c 23 16 97 bc ee 9a aa 3e c7 ec 0c 3e
       0.020604972 -0.018443173 0.33321327 0.13762198

weight f4 [4, 12]
000000 2c ea 39 3e c8 20 82 3d 3a 50 43 3e 8e 42 93 bd
       0.18155736 0.06353909 0.19073573 -0.07190429
000010 b2 91 81 be 98 0a d2 3d da 3d b6 bd 69 38 7e be
       -0.2530647 0.10255927 -0.08898516 -0.24826206
000020 10 02 4c 3d c0 cc 09 be 50 bf 7f be 3f fc 6d be
       0.049806654 -0.13457012 -0.24975324 -0.23240755
000030 93 c8 6a 40 d5 bf 13 3f 41 8d 3f be 3a 57 84 3e
       3.668492 0.5771459 -0.18706228 0.258478
000040 6b 9a b6 3f 8c 73 2b 3f 1f 1c d8 bd 23 01 d2 bf
       1.4265875 0.66973186 -0.10552239 -1.6406597
000050 44 e3 89 3e 2e 52 16 3f bd 51 12 3f ce 4e 62 3f
       0.26931202 0.58719146 0.5715597 0.88401496
000060 7d 95 6d 40 93 42 5d 3f eb d4 7a be 97 56 5f be
       3.712249 0.8642971 -0.24495284 -0.21810375
000070 64 fc c1 3f 6b 56 86 3f 2d 3a 64 be d8 be a3 bf
       1.5155149 1.0495123 -0.22287817 -1.2792616
000080 03 51 bb 3d 96 b6 e5 3e 1b ff 41 3f 43 45 98 3f
       0.09146311 0.44865865 0.75779885 1.1896137
000090 3a 8a 79 c0 ca 1f 27 bd bd 84 19 be 10 47 a7 bd
       -3.8990617 -0.0408018 -0.14992042 -0.08167851
0000a0 7f cc b4 3e 43 6c 8c be 5d c7 78 3e ea 1c de 3f
       0.35312268 -0.27426347 0.24294801 1.7352574
0000b0 1e 92 97 be 2f 46 aa be f6 f3 d9 bd b5 8e 9e be
       -0.29603666 -0.3325667 -0.10642235 -0.30968252

bias f4 [4]
000000 d0 bc 48 be c0 ff 65 3e 7c d5 fe 3d 8c d1 40 3f
       -0.19603276 0.22460842 0.12443063 0.75319743

weight f4 [12, 10]
000000 46 89 0e 3f e9 eb 78 3f 54 23 0c bf f2 ae 46 bf
       0.5567821 0.9723497 -0.54741406 -0.77610695
000010 ee dc 23 3f 91 81 2d 3e 03 0c ba 3e 13 b4 22 3d
       0.64008987 0.16943957 0.3633729 0.039722513
000020 9a 9c 34 3f 1a f4 84 bf 42 65 a7 bd 04 01 c7 3e
       0.70551455 -1.0386994 -0.0817361 0.38867962
000030 fc c3 0f c0 5e c1 f0 bf 0a ac 21 3f b1 35 95 be
       -2.246337 -1.8809011 0.63153136 -0.29142526
000040 8b a8 03 3d d6 8b 6e be 46 4b a2 3f a0 c2 ad be
       0.032143157 -0.2329553 1.2679222 -0.3393755
000050 87 3e 11 be 65 76 b2 3c 48 94 9a 3d 04 ba a1 be
       -0.14184009 0.02178497 0.07547814 -0.3158723
000060 d4 d1 c9 3d b6 3e 36 be ef 47 a8 3d a3 42 73 bd
       0.09854475 -0.1779736 0.08216845 -0.05938972
000070 8b aa 81 3e 1f ba 43 be 60 44 13 3c 36 e9 4e 3e
       0.25325426 -0.19113968 0.00898847 0.2020615
000080 d0 31 cb 3c 70 5f 35 be f0 bf e5 3c 00 b8 c1 ba
       0.024804026 -0.17712188 0.028045624 -0.0014779568
000090 f0 ca 49 3d db 41 95 be 7a 1d 63 3e 82 73 47 be
       0.049265802 -0.29151806 0.22179213 -0.19477656
0000a0 a2 5b 79 be 80 5f 53 bb d4 4a 19 3e 76 5a a0 be
       -0.24351361 -0.0032252967 0.14969951 -0.31319016
0000b0 43 ce 11 be 3a 7b 71 be ef 5c 3b be be 62 7e be
       -0.14238839 -0.23582163 -0.1829717 -0.24842355
0000c0 2a bf d8 bd 48 7d 9d 3d 7b 24 83 3e ff c1 e0 3e
       -0.10583337 0.07689911 0.2561377 0.43898007
0000d0 2f 2c 29 bf b2 31 c0 be 22 c8 37 3f 11 55 1e bf
       -0.66083044 -0.37537915 0.71789753 -0.6184855
0000e0 7f 0f b4 bd 0c 25 0d bf e5 bf bb 3e 0e ce 2f bf
       -0.08792018 -0.55134654 0.3666984 -0.6867379
0000f0 ea a3 bf 3e ae 36 a2 be fd 7a 93 3f 0a 42 59 3f
       0.37429744 -0.31682342 1.1521908 0.8486639
000100 f2 7e 2e bf 3f 35 92 3e bf 36 39 3c e5 ee f4 3e
       -0.68162453 0.2855625 0.011304556 0.47838512
000110 df f3 f4 be c4 65 82 3f c3 08 d2 3d ee c5 95 3f
       -0.4784231 1.0187306 0.102555774 1.1701028
000120 62 e8 84 bf 6a c5 1c bf 89 13 89 3f d3 8a 40 3e
       -1.0383418 -0.6123873 1.0709087 0.18802957
000130 94 98 64 3e ce a7 85 3e fb d4 12 3f f6 b7 93 bf
       0.22323829 0.26104587 0.5735623 -1.1540515
000140 9f 9d 13 be f2 1a 5e 3e d0 60 2e bd 20 ec 70 bd
       -0.14415596 0.21689966 -0.042572796 -0.058818936
000150 f7 0d 86 be 7c 24 46 be c8 0f 1f 3e 12 cd 44 3e
       -0.2618253 -0.19349855 0.15533364 0.19218853
000160 33 ea 75 be a7 c7 9d 3e 02 c9 49 be 39 a8 e8 3f
       -0.24015121 0.30816385 -0.19705585 1.8176337
000170 64 62 3f bd bb 36 79 3f c5 37 ee 3e 15 fb b7 bd
       -0.046724692 0.9734914 0.46526924 -0.08983437
000180 e4 50 a6 be da 7e a2 be 53 2f 09 3f 87 76 38 3f
       -0.3248359 -0.31737405 0.53587836 0.7205586
000190 53 d7 d4 bc 10 fc 4b 3f ed 6e 80 bf ae 50 37 bf
       -0.02598158 0.7968149 -1.0033852 -0.7160748
0001a0 53 10 1e 3f dc bb b7 be 20 b6 36 3e ad 87 c8 be
       0.6174366 -0.35885513 0.17842913 -0.39166012
0001b0 9d 3f ad 3e c1 71 64 bf ba 10 9e 3e 58 2d 3e 3f
       0.33837596 -0.89236075 0.30872136 0.7428794
0001c0 4c 8e a9 bf ad d5 25 bf 89 9c 47 3f a7 ca ea be
       -1.324655 -0.6477917 0.7797323 -0.45857736
0001d0 be 1f 02 3d 08 e8 b4 be b1 c8 cc 3e c4 25 2f bf
       0.031768553 -0.35333276 0.39996865 -0.68417

bias f4 [12]
000000 c7 0b 92 3e ca 7b 82 3b 4c c9 fa ba 4f 17 44 be
       0.2852461 0.003982042 -0.0019133477 -0.19149517
000010 44 c3 d1 bd 7c 44 03 3f b0 d2 52 3e be a8 b3 3e
       -0.10242322 0.51276374 0.20588183 0.35089678
000020 f6 4f ca bd a8 fb 8b be 94 c4 ce 3e 85 10 82 3e
       -0.098785326 -0.27340436 0.40384352 0.25403228

weight f4 [12, 12]
000000 c9 16 1f be 7d 78 36 bd 4c 3a 78 3e c7 1f 8d be
       -0.15536036 -0.0445485 0.24240988 -0.27563307
000010 60 4f 81 3c 3e ea 81 3e 88 4a 80 3d 50 ae 39 3d
       0.01578492 0.25374025 0.06264216 0.045332253
000020 06 df 05 3e 6f 08 34 be 35 19 12 3d b7 51 83 3d
       0.13073358 -0.17581342 0.03566857 0.0641207
000030 15 2e 2c bd 00 3d 97 40 50 7f e1 bc 00 ed 0f bc
       -0.042036135 4.7261963 -0.027526528 -0.008784533
000040 68 0d 71 3d f4 f9 31 3f 5b dd 48 bf ff 87 e7 3e
       0.058850676 0.69522023 -0.7846276 0.45220944
000050 5a 64 92 3e f7 55 0e 40 3f af 23 3f 27 c5 73 3f
       0.28592187 2.2239969 0.6393928 0.95222706
000060 8e 86 83 be 28 09 3c bd e0 0f bd 3c cc df 6c 3e
       -0.25688595 -0.04590717 0.023078859 0.23132247
000070 b8 83 8d 3d d4 ca 67 3e 90 ff ea bc 4c 0c 90 3e
       0.06909889 0.22635967 -0.028686315 0.28134382
000080 b0 00 b0 3d 96 94 33 be 48 49 74 be 9a 4a 1c 3e
       0.08593881 -0.1753715 -0.2385608 0.15262833
000090 0b ab a9 3e 16 b1 84 c0 a2 70 f3 bd 70 30 71 3e
       0.33138308 -4.146617 -0.118867174 0.23553634
0000a0 b2 bd b0 bd aa 2e 9a be 39 70 de 3e 64 fb 0f 3e
       -0.086299315 -0.30113727 0.43444994 0.14060742
0000b0 52 b6 d2 bd 68 d4 ea bf 60 74 20 bd 70 7c c0 be
       -0.10288681 -1.8346071 -0.039173484 -0.37594938
0000c0 4e 34 d9 3e fa a8 89 c0 bf af df 3c 60 2a d9 bc
       0.42422718 -4.301877 0.027305482 -0.026509464
0000d0 28 8e 2c 3e 0a 36 ca be 78 e6 36 3f 27 0f 29 3e
       0.16851103 -0.39494354 0.7144542 0.16509686
0000e0 08 41 cf bd 16 a9 d5 bf d4 92 ba bd 01 a2 1a bf
       -0.101198256 -1.6692226 -0.091100365 -0.6040345
0000f0 17 d9 b2 3e d0 7b 89 40 fc fc c5 bd d4 59 0f 3e
       0.3493125 4.296364 -0.096673936 0.1399911
000100 38 c7 44 3e 05 d1 23 3f 45 62 20 bf 53 f1 a7 3d
       0.19216621 0.63990813 -0.6264995 0.08200326
000110 02 6d c9 bd 12 f0 e5 3f 5a 56 18 3f 2a 42 5a 3f
       -0.09835245 1.7963889 0.5950676 0.8525721
000120 c9 41 da 3e 7a 68 94 40 5f b0 0b be 48 c1 63 3e
       0.42628315 4.6377535 -0.13641499 0.222417
000130 8c 71 d4 3d d4 8d 6d 3f d7 b9 9e be 1b 4c d2 3e
       0.1037322 0.9279454 -0.3100116 0.4107369
000140 e0 90 be bc cf 97 0c 40 f8 74 0d 3e 0c ca 4a 3f
       -0.023262441 2.1967657 0.13814151 0.7921455
000150 b4 62 60 bd 96 65 8d bd 4c 6f da bd 30 da b2 3c
       -0.05478163 -0.069041416 -0.106657594 0.021832556
000160 d4 c7 65 3e 86 20 dc bd a9 86 82 be 19 8c 0a be
       0.2243951 -0.10748391 -0.25493363 -0.13530006
000170 b2 2f 54 be b0 56 a7 bd 68 c3 84 3d fc cc 91 3d
       -0.2072132 -0.08170831 0.06482583 0.07119176
000180 39 87 ba 3e 66 7c 98 40 b5 29 f8 3c 78 ea 8c 3e
       0.36431292 4.7651854 0.030293325 0.27522635
000190 66 ef 36 be 8d 2d 8e 3f df 6b 1e bf 64 9f 67 3e
       -0.17864761 1.1107651 -0.6188335 0.22619396
0001a0 90 be 0e 3e 99 fa 03 40 5e 5d 1b 3f ea 78 85 3f
       0.13939881 2.0621703 0.6068934 1.0427525
0001b0 90 a4 fe 3e 7f 88 99 40 c6 a0 e1 bd cc fa 00 be
       0.49734926 4.797912 -0.11016993 -0.12595671
0001c0 a0 de 6d 3d c1 81 c5 be 6a 87 80 be aa ec e0 3e
       0.05807364 -0.38575557 -0.25103313 0.4393056
0001d0 d0 8e 40 3d 46 ae 04 bf aa 8b 26 3e 7c 8b b2 3e
       0.047011197 -0.5182842 0.16264215 0.34872043
0001e0 92 30 c9 3e 17 fd 8d 40 f5 3b 81 be 0a 72 14 3e
       0.3929487 4.4371448 -0.25241056 0.14496627
0001f0 5a 14 0d be 06 a1 5d 3f 60 2a 23 bf 1b 39 eb ba
       -0.13777295 0.8657383 -0.63736534 -0.0017946096
000200 80 4d 28 3e b3 52 dc 3f ec 6c d3 3e 83 0a 64 3f
       0.16435814 1.7212738 0.41294038 0.8907854
000210 a1 a9 6f 3e 6d 3f 93 40 06 07 ad 3d 8e a4 85 be
       0.23404552 4.6014924 0.08448605 -0.26102108
000220 32 c5 31 3e c7 e3 0d 3f c7 30 8f be 79 c8 ed bd
       0.1736038 0.55425686 -0.27966902 -0.11610503
000230 86 fe 91 3e 3e ad 06 40 b3 20 18 3e 5d 2d 2e 3f
       0.28514498 2.1043239 0.14856224 0.6803797

bias f4 [12]
000000 a2 ae 97 be 0c 9f ad 3d 25 9a 27 be 1b 8f a5 3d
       -0.29625422 0.084776014 -0.16367395 0.08083936
000010 12 e8 3a 3d 09 08 a2 3e 7d 92 b6 3e b4 8a 10 be
       0.045631476 0.31646755 0.35658637 -0.14115411
000020 28 c9 62 3e b4 71 04 bf 6a 61 e8 3e b3 b0 b7 3e
       0.22147048 -0.51736 0.4538682 0.35876998

weight f4 [4, 12]
000000 8a bf 8f 3c ca fe a9 3f 10 40 4c 3e fa 63 73 bf
       0.017547388 1.328088 0.19946313 -0.9507443
000010 71 c9 78 bf fb 60 77 3f 7a 0a 2d 3f 8c 66 78 3e
       -0.97182375 0.96632355 0.6759411 0.24257869
000020 31 a7 81 3f 74 6a a1 40 96 e1 3a 3f 7b d5 83 3f
       1.0129148 5.044245 0.73000467 1.0299524
000030 40 f8 d7 3b 30 0d 58 bd 38 ed 80 3e 28 95 52 3d
       0.006590873 -0.05274695 0.25180984 0.051411778
000040 38 45 7b be 68 17 18 3e 26 5d 5e be 9c fd 8d bd
       -0.24538124 0.14852679 -0.21715221 -0.06933138
000050 68 51 70 3d 60 f2 c2 3c af 01 06 be 5c 40 18 3e
       0.058671385 0.023797214 -0.1308658 0.14868301
000060 a3 a1 77 be 16 3e 9b 3f 50 80 de 3c a5 57 83 bf
       -0.24182753 1.2128322 0.027160794 -1.0261122
000070 e2 73 05 bf a7 f8 01 3f 9d 8d 0f 3f bc c2 44 be
       -0.5212995 0.5077004 0.5607546 -0.1921491
000080 60 50 5e 3f f0 db a3 40 09 72 4c 3f 39 da 55 3f
       0.8684139 5.120598 0.79861504 0.83536106
000090 6f 4d 05 be 60 28 6c 3e 54 ab 85 3d 2c ca 82 bd
       -0.1301782 0.23062277 0.06526819 -0.063862175
0000a0 50 e5 9c bc 3c 3d 95 be cb f7 22 be 40 11 a0 3b
       -0.019152313 -0.2914828 -0.15914838 0.004884869
0000b0 af d7 92 3d 66 90 0c be 43 82 2a bc 93 45 30 3e
       0.07170045 -0.13726959 -0.010407033 0.1721404

bias f4 [4]
000000 03 98 d6 3d 80 72 9c bb 81 9c 9d bd 95 0e d5 bd
       0.10478213 -0.0047743917 -0.076958664 -0.10403172

weight f4 [12, 10]
000000 ac 36 88 bf 50 07 2b 3e fa d4 97 be 0a 79 86 bf
       -1.0641685 0.16702008 -0.29654676 -1.0505688
000010 82 8d ee 3d ac 62 52 be 58 88 a7 be a6 97 0e 3e
       0.11648084 -0.20545453 -0.3272121 0.13925037
000020 bd 2e 76 3f c4 05 05 bf 91 7b f7 3e 42 00 39 bf
       0.96165067 -0.5196192 0.4833646 -0.7226602
000030 1e de 45 bf ea 28 2b 3f b7 25 36 be cc c1 c9 3e
       -0.7729205 0.66859305 -0.17787825 0.39405668
000040 58 9e ca 3e 7d 8f bd 3d 8c 50 1b bf 3f ac a8 3e
       0.39573932 0.09255884 -0.6066978 0.32943913
000050 15 ad 37 be 80 4a 19 3f ef 98 ba 3e 14 c6 5e bf
       -0.1793712 0.598793 0.36444804 -0.87020993
000060 18 19 89 3e 06 b2 de be c8 d4 27 bd c5 1b 99 bd
       0.26776958 -0.43495196 -0.04097441 -0.07476
000070 e3 e8 85 3f 58 a6 e9 be b8 2c c2 3e 65 bd 40 bf
       1.0461696 -0.45634723 0.37924743 -0.75288993
000080 68 b5 16 bf 51 0d 76 3f eb 24 00 3e 08 1f ed 3e
       -0.58870554 0.9611407 0.12514083 0.46312737
000090 95 8e 33 3f c3 6e ac 3e c3 af 35 bf fa 9c a5 3e
       0.7013944 0.33678254 -0.70971316 0.32346326
0000a0 cb ac 4e be b9 ed 3d 3f 32 9d ad 3e dc cd 83 bf
       -0.20183103 0.7419086 0.33908993 -1.0297198
0000b0 92 5f c4 3e c2 07 59 bd f1 02 0d 3e 30 e8 4e 3e
       0.38354164 -0.052985914 0.13770653 0.2020576
0000c0 9f d0 70 3f b7 1a d1 be 5f 5d 71 3d 66 56 eb be
       0.9406833 -0.40840694 0.058926936 -0.45964354
0000d0 cb cf 80 bf e9 c7 19 3f 03 69 c7 be 46 fa 02 3f
       -1.0063413 0.60070664 -0.38947305 0.51163137
0000e0 b8 ac 1e 3f 49 f9 b3 3e d9 fe 29 bf 37 6f 23 3f
       0.619823 0.35151127 -0.6640449 0.63841575
0000f0 47 86 c3 be 5f 0a 50 3f 0c b3 4f 3f 02 e2 40 bf
       -0.38188383 0.81265825 0.8113258 -0.7534486
000100 cc 02 58 3e fd d8 b2 be 17 29 d3 3d 3a 15 35 be
       0.21094817 -0.34931174 0.10310572 -0.17683879
000110 82 a5 55 3f 85 81 45 bf e8 70 1e 3d 20 84 65 bc
       0.8345567 -0.77150756 0.038681895 -0.014008552
000120 1a ab 66 3e 40 50 db 3b 88 58 bf 3d ae e4 37 be
       0.22526208 0.006692916 0.09343058 -0.17958328
000130 20 8b b0 bc 76 0f 41 3e c4 44 a0 be 18 c9 1f bd
       -0.021550715 0.18853554 -0.31302464 -0.039010137
000140 2b b9 14 be 18 2c ce bd 5f fd 93 3e 25 c9 71 3e
       -0.14523761 -0.10067004 0.28904244 0.23611887
000150 dd 48 2c 3d e5 d1 89 3e 0f 6e 68 be b6 9e dd 3d
       0.042061675 0.2691795 -0.22698234 0.10821287
000160 c1 20 a8 bd 01 ef 42 be d6 f4 0a bf 6d 7c 7c 3f
       -0.08209372 -0.19036485 -0.5427984 0.9862736
000170 e0 2e 1a 3f 49 5b ee be ae 0b 45 3f 25 71 f7 bd
       0.60227776 -0.4655402 0.76970947 -0.120821275
000180 56 ea 95 3d 88 49 7c 3e cd 75 94 3f 72 86 5a bf
       0.07320087 0.24637425 1.159845 -0.853614
000190 a3 02 f2 3e f4 c4 9e be e4 88 9a be 3f 0a 80 3f
       0.47267637 -0.31009638 -0.30182564 1.0003127
0001a0 86 bc f2 be 6d f8 05 3f 2b a5 c0 3d 09 2a 88 3e
       -0.47409457 0.5233219 0.09406503 0.2659457
0001b0 2c 7a 00 bf 7e de 7b 3f 84 f2 68 be 09 07 3c be
       -0.5018642 0.9838637 -0.22748762 -0.18362059
0001c0 4c f2 8b be 00 01 a5 bb f6 4e 97 be 7d 47 98 3e
       -0.27333295 -0.0050355196 -0.2955243 0.2974204
0001d0 60 9c 32 3c e1 45 33 be ca b9 6c be 00 b8 55 3c
       0.0109015405 -0.17507125 -0.23117748 0.013044357

bias f4 [12]
000000 b7 07 d5 3e 48 54 45 3e db 2c 15 3e 2f e6 31 3e
       0.41607448 0.19270432 0.14567892 0.17372964
000010 60 a4 c8 3e 6c fe c5 3d 35 f7 e2 3d cc 08 d8 bd
       0.39187908 0.09667668 0.11082307 -0.10548553
000020 93 6e a2 be 6c e4 04 be 32 95 d2 3e a6 ce 47 be
       -0.31724986 -0.12977761 0.41129452 -0.19512424

weight f4 [12, 12]
000000 aa 47 8a 3e 82 7d 09 3e 80 77 52 3b 8e bc 84 be
       0.270078 0.13426784 0.0032114685 -0.25925106
000010 ab 0c 03 be 0c d2 b1 3d 20 2e 8c bd 54 85 65 3e
       -0.12797801 0.086826414 -0.06844735 0.22414142
000020 4a 91 21 3e 5c 85 17 be 3e 19 81 bd 86 c6 81 be
       0.1577808 -0.14796966 -0.06303643 -0.25346774
000030 1e 56 2b 3e e2 ec f3 3d 9d 9e 84 bd 90 d8 8d be
       0.1673207 0.11910416 -0.064755656 -0.27704287
000040 dc 43 97 be 80 c5 2d be b8 08 cf 3d 28 8a 27 bd
       -0.2954396 -0.16969872 0.10109085 -0.04090324
000050 e4 7e 60 bd a5 e2 3e be 16 f2 1e be b8 73 75 3e
       -0.054808512 -0.18641146 -0.15522036 0.23969924
000060 1e 47 89 3e f4 08 da be 30 65 ab 3f 9e 58 b0 be
       0.2681207 -0.42584956 1.3390255 -0.3444261
000070 02 74 11 3e 88 22 31 bf 19 93 a5 3f e0 0f 66 bc
       0.1420441 -0.69193316 1.2935516 -0.014041871
000080 b5 78 06 bd a9 4c 1f 40 ed cc e7 be f0 ff b9 bc
       -0.03282996 2.489054 -0.45273533 -0.022705048
000090 d1 f1 65 be 2b 36 36 be 8d e2 f6 3d c2 d5 69 3e
       -0.22455527 -0.17794101 0.1205493 0.22835448
0000a0 ee 44 ef bd 97 94 82 bc ef 2f db bd 13 23 81 be
       -0.11683069 -0.015939994 -0.10702502 -0.25222072
0000b0 f6 70 35 3e 9c 9d 0b be 02 96 6a 3d 6f 3d 17 be
       0.17718872 -0.13634342 0.057271965 -0.14769529
0000c0 69 b2 43 3e d0 e1 16 bf de 9f 75 3f 31 5d dd be
       0.19111027 -0.5893831 0.9594706 -0.43235162
0000d0 c8 06 c4 3e f4 91 54 bf d7 e4 9e 3f 1c f5 3c 3e
       0.38286424 -0.83035207 1.2413586 0.18452877
0000e0 53 bd 48 3e 4d f7 21 40 06 e7 c2 be 68 71 05 3e
       0.19603471 2.530719 -0.38066882 0.13031542
0000f0 ee d6 d3 3e 8a c5 0e bf c9 77 67 3f 27 83 aa be
       0.41374916 -0.5577017 0.9041715 -0.33303186
000100 8d 03 19 3e 78 49 62 bf 1c f1 8e 3f 98 97 35 be
       0.14942761 -0.88393354 1.1167331 -0.1773361
000110 0d 1b a2 3e ea ec 11 40 5a 2d 81 3d 80 e3 36 3b
       0.31661263 2.280085 0.06307478 0.0027906597
000120 e4 cc d2 39 56 e0 69 be 37 d8 71 3f a4 b9 05 bf
       0.00040206977 -0.22839484 0.9447054 -0.5223639
000130 69 1e cf 3e 53 37 ee be 83 b0 85 3f 64 73 8a 3d
       0.4045289 -0.46526584 1.0444492 0.0676029
000140 11 af 84 3e 8e d4 26 40 f2 35 ce be 40 93 a8 3d
       0.25914815 2.6067233 -0.40275532 0.08231211
000150 b0 0e 8a bc 77 c7 8f be f4 f9 7b 3e 38 28 ab 3d
       -0.016852707 -0.28081867 0.24607068 0.083572805
000160 37 ee 29 be 2c ba 73 bd e0 3b 20 bd d6 21 56 be
       -0.16594778 -0.05950372 -0.0391196 -0.20911345
000170 68 4f 7c 3d 20 f1 cf 3d 1c ec 72 be 6c fb e9 3d
       0.061599165 0.10153413 -0.23722881 0.11424908
000180 c2 8c ca 3e e9 e6 33 3f 29 67 54 bf be aa 6d 3f
       0.39560515 0.70274216 -0.8296991 0.92838657
000190 43 86 06 3f b2 23 28 3f 10 99 1a bf b9 79 24 be
       0.5254862 0.65679467 -0.60389805 -0.16062059
0001a0 89 ad 04 3e d4 82 34 c0 e0 5b e1 3e f8 c4 1d bd
       0.12956823 -2.820485 0.44015408 -0.038517922
0001b0 ee a6 2d 3f 87 22 35 3f 7c d6 22 bf 16 18 13 3f
       0.6783284 0.7075581 -0.6360853 0.5745863
0001c0 ec 98 5e 3e 44 3a 2d 3f b7 c2 18 bf 18 7a 4c be
       0.21738023 0.6766703 -0.5967211 -0.1996845
0001d0 a8 2f 45 3e bf 7a 3d c0 86 b9 4f 3f a0 35 33 3d
       0.1925646 -2.9606168 0.8114246 0.043752313
0001e0 4a 83 f0 bc ac 7a e8 be d4 d1 9c 3f be 78 29 bf
       -0.029359479 -0.4540609 1.2251534 -0.6619986
0001f0 9e 67 3f 3e a8 53 c0 be 7f fb 76 3f 11 27 06 be
       0.1869187 -0.37563825 0.964775 -0.1310084
000200 a8 8f 37 bd 40 8f 22 40 ea 4b 0e be 54 04 b2 3d
       -0.044814736 2.5399933 -0.13896146 0.08692232
000210 43 18 05 be a7 50 44 be 6d f6 11 be 2f 4e 22 be
       -0.12997536 -0.19171391 -0.1425416 -0.15850137
000220 50 7c e7 bc 16 2d 88 be 24 8c 91 3e 20 d6 52 bd
       -0.028257519 -0.26596898 0.2842723 -0.051473737
000230 40 2c 25 be ee cb 80 be b4 35 8f bd 84 3a 23 3e
       -0.16130161 -0.25155586 -0.06992665 0.1594029

bias f4 [12]
000000 f4 c5 6a be 84 ca 4e 3d 9b 60 da 3d 85 91 17 bd
       -0.22927076 0.050486103 0.10662957 -0.037004013
000010 24 30 14 3e 0a e6 56 bd 3c 84 ea 3d 68 8d 01 be
       0.14471489 -0.052465476 0.11451003 -0.12651598
000020 b8 5d 34 3f 98 2d 6e 3f 09 1b 10 3e d0 35 3d be
       0.70455503 0.9303832 0.14072813 -0.18477559

weight f4 [4, 12]
000000 40 7c 1c 3e b6 5a 50 be 84 aa cd 3d c8 52 2e 3d
       0.15281773 -0.20347103 0.10042289 0.042559415
000010 00 05 7f bc dc 6c 4e be 68 ce 80 3d cc 1f ef 3d
       -0.015565157 -0.20158714 0.06289369 0.11675987
000020 30 2e 91 3c 11 b7 17 be c6 fd c1 bd 36 d1 2d 3e
       0.01772222 -0.14815928 -0.094722316 0.16974339
000030 5c 73 53 be 5a 01 98 bd 64 f7 54 be 88 fb 29 3d
       -0.20649475 -0.07422133 -0.20797497 0.041499645
000040 00 f2 36 bb a5 a1 83 be 64 fd 56 bd 40 91 e9 3d
       -0.002791524 -0.25709262 -0.052487746 0.11404657
000050 66 ce dd bd 36 81 32 be 38 ba d4 3d 52 c8 08 be
       -0.10830383 -0.17432103 0.10387081 -0.13357666
000060 7e dc 92 bd bb c0 c2 3c 38 6d f1 bf f8 37 c7 3d
       -0.07170962 0.023773542 -1.8861456 0.09727472
000070 aa c4 b5 bf 4e 72 f0 bf 83 e6 ff bf 84 f6 88 3e
       -1.4200642 -1.8784883 -1.9992222 0.26750576
000080 43 b0 8a 3f 4a a7 55 3f c3 e6 e4 bf 18 c3 d7 3d
       1.0835041 0.8345839 -1.7882923 0.10535258
000090 c8 09 cf bd 18 f5 7b be 7d 1d fb bd 68 0e 8f be
       -0.101092875 -0.24605215 -0.12261484 -0.2794068
0000a0 71 ed cd 3c d4 04 c4 3d 39 85 44 3e 38 5d 56 3d
       0.025137635 0.095712334 0.19191445 0.052334994
0000b0 5c 3e 93 be 90 b8 8a be 0c 5d 34 be 8d 03 76 be
       -0.28758514 -0.27093935 -0.1761362 -0.24024792

bias f4 [4]
000000 60 63 31 bd 60 c6 ef 3c c4 12 4d 3f 7f 95 c3 bd
       -0.043307662 0.029269397 0.8010676 -0.095499985

weight f4 [12, 10]
000000 c4 0a ed bf 55 4a b3 be e4 4e 9e 3f 88 80 38 bf
       -1.851891 -0.35017648 1.2367826 -0.72071123
000010 c4 2d 85 3f 22 7e 2e 3f f9 50 16 3e 92 c9 96 be
       1.0404592 0.68161213 0.14679326 -0.2945066
000020 c7 87 09 bf 13 b6 6f 3f cd d1 6a be 8a da 10 be
       -0.53722805 0.936372 -0.22931595 -0.14145866
000030 b0 98 37 bd 38 7d 7f bd 42 18 7a 3e 56 a7 30 be
       -0.04482335 -0.062375277 0.24423316 -0.17251334
000040 1e 4b f1 bd a6 9c 6d 3e 0e b2 8a be e3 5f 8f 3e
       -0.117819056 0.23204288 -0.2708897 0.28002843
000050 d7 71 0e bf 04 ac 37 3f cf 8d e2 bf 4d 03 c2 3f
       -0.55642456 0.7174685 -1.7699527 1.5157257
000060 d0 b4 25 bf 56 e9 da be ba 0b 16 3e ab b8 28 3e
       -0.6472902 -0.42756146 0.14652911 0.16476695
000070 fa 20 ba 3f b1 ef 62 3f 68 f3 a1 bf f0 83 90 3d
       1.4541314 0.8864699 -1.2652407 0.07056415
000080 00 4c 97 3f 6e 30 a5 bf d2 b3 95 3f 9a 48 60 3f
       1.1820068 -1.2905405 1.1695502 0.8761078
000090 e1 16 88 3e 08 47 0b be 08 81 2a bf d6 a4 18 3f
       0.26579955 -0.13601315 -0.66603136 0.5962652
0000a0 a0 1c 26 3c 80 b3 2a 3d 00 04 56 bc 4e 13 47 be
       0.010138661 0.04167509 -0.013062477 -0.19440958
0000b0 f0 15 96 bc 4a 7e 86 be 98 63 ce bd ce 83 be bd
       -0.018321007 -0.26268226 -0.1007759 -0.093024835
0000c0 be 3f 91 bd d2 76 54 be c2 85 2f c0 87 bd f5 3e
       -0.07092236 -0.20748451 -2.742539 0.4799616
0000d0 5d d1 05 bf 02 af 97 3f 15 be 82 3e 2b d2 e7 3e
       -0.5227259 1.1850283 0.25535646 0.45277533
0000e0 85 fc 99 3d e7 78 eb bc f9 1e 96 3f 6f 72 06 40
       0.075188674 -0.028744174 1.1728202 2.1007345
0000f0 da aa 3f c0 eb 6c 50 be b1 89 f3 bd 2b 73 f9 3e
       -2.994803 -0.20354049 -0.11891497 0.4872068
000100 2c 73 69 3e 5c 75 26 3f b0 ff f6 3e 80 f4 c1 be
       0.22797841 0.65022826 0.4824195 -0.3788185
000110 20 63 42 3f 1e cb e0 3f 3d fa f4 bf d9 ef 99 be
       0.759325 1.7561986 -1.9138867 -0.30065802
000120 49 3e 7e 3f 26 d5 a6 bf c5 e9 84 3f 09 cb 3c 3f
       0.9931379 -1.3033798 1.0383841 0.7374731
000130 4b 21 a5 3e 46 b3 10 bf dd b8 28 bf ec c0 55 3f
       0.32251963 -0.5652355 -0.6590708 0.834975
000140 40 66 f9 bf a5 3f 00 be dd 6d 5a 3f 3c 4e 2b bf
       -1.9484329 -0.12524278 0.8532389 -0.6691625
000150 8e 74 51 3f 8a 6d b8 3e cc 4c 34 be 63 00 ac be
       0.81818473 0.36021072 -0.1760742 -0.33594045
000160 bd ed 05 bf a1 0f 24 3f c4 16 90 3d c4 92 7f be
       -0.52315885 0.6408635 0.07035592 -0.2495833
000170 10 27 e7 bc aa 60 79 be f2 fd b6 bd be 8f 1f be
       -0.028216869 -0.2435328 -0.08935155 -0.15582177
000180 70 80 9c bd ce 4b 74 3e 10 74 54 be 2e 26 bd bd
       -0.07641685 0.23857042 -0.207474 -0.09235798
000190 5a ba b6 3f a7 11 02 3f a2 55 6a bf 8e 13 cf 3f
       1.427562 0.50808185 -0.91536915 1.6177843
0001a0 0a d5 2f bf 76 0a 64 be 76 f9 e8 3d ae 1e 22 bc
       -0.68684447 -0.22269616 0.11375706 -0.00989501
0001b0 3d 11 1e 3f a8 79 ca be fc 66 23 c0 6e 87 36 bf
       0.61745054 -0.3954594 -2.5531607 -0.713004
0001c0 5c fe 92 bd f7 4d c1 bf bc d1 15 3f 66 f9 a3 3d
       -0.071774215 -1.5101918 0.58523154 0.08006553
0001d0 66 c8 ee 3d d3 d9 b0 be 5f 46 7f bf 2f df a4 be
       0.11659317 -0.34541187 -0.9971675 -0.32201526

bias f4 [12]
000000 8b 90 92 3d 84 49 93 bd 19 c3 35 3f 8d 91 3e 3d
       0.07156476 -0.07191756 0.7100082 0.046525527
000010 a8 81 80 bd 6e bf 81 3f 5d ed 59 3f fc 9e 8f 3e
       -0.0627473 1.0136545 0.8512781 0.28050983
000020 0d 5f 3b 3e 42 e4 97 bd 7e da c8 3d 6f 69 cd 3e
       0.18297978 -0.074165836 0.09807299 0.40119502

weight f4 [12, 12]
000000 29 d0 a7 3f 00 42 2e 3d aa df 89 3e bd 8d 89 3f
       1.31104 0.04254341 0.26928455 1.074638
000010 59 03 0b be 78 02 ec 3e f0 7e 1e 3f 1f cb b4 3f
       -0.13575496 0.46095634 0.6191244 1.4124488
000020 2b 51 bb 3f 1c a1 4a 3e 70 d1 71 bf fb 4f 60 40
       1.4634145 0.19788021 -0.944602 3.5048816
000030 9f 48 d4 3f c8 88 c0 3d 36 0f fe bd 70 5c c4 3f
       1.6584662 0.09401089 -0.12405245 1.534071
000040 28 ec 52 3e 14 05 95 3e f6 50 2d 3e e8 00 c8 3f
       0.20597899 0.29105437 0.16925415 1.5625277
000050 f6 e9 da 3f a0 d9 b5 bd c3 59 69 bf 34 6a ad 40
       1.7102649 -0.08879399 -0.9115259 5.4192142
000060 e0 96 44 be d0 52 86 3d f4 fc e4 bd d8 3e 40 be
       -0.19198179 0.06558764 -0.111810595 -0.18773973
000070 a0 07 10 be 17 cb 15 be 20 c7 98 bc 14 5f fe 3d
       -0.14065409 -0.14628254 -0.018649638 0.124204785
000080 ee df 8d bd d4 db 8a 3e d1 f0 47 be f8 8b fa 3d
       -0.06927477 0.2712084 -0.19525458 0.12233728
000090 09 66 a4 bf 49 08 36 be a7 1f 81 3f e4 34 93 bf
       -1.2843639 -0.17776598 1.0087785 -1.1500516
0000a0 60 11 fc 3c 52 7d 29 3f 38 e1 a1 3e ba 17 8b bf
       0.030770004 0.6620685 0.3161714 -1.0866616
0000b0 c4 b4 3b bf 50 6c e3 bc b3 f7 e3 3f 98 45 c3 bf
       -0.733227 -0.027761608 1.7809967 -1.5255613
0000c0 26 f2 cf 3e 7a d2 3c 3e 3d 80 7e be 78 f8 6b 3f
       0.40614432 0.18439665 -0.24853607 0.9217601
0000d0 45 ed 39 be 6d 36 d9 3d 21 41 0e 3d 8f 8a 18 3f
       -0.18156917 0.10606084 0.03473008 0.59586424
0000e0 d3 2d 49 3f c8 58 6c 3e 33 79 fc be e9 4d 86 3f
       0.7858555 0.23080742 -0.49311218 1.0492526
0000f0 d6 01 9c 3e e0 22 69 bc 47 fe 8c 3f 2f 54 cf bc
       0.3047015 -0.014229506 1.1015099 -0.025308697
000100 8f ad 26 be d2 7e 4c 3f 29 4f 51 3f 28 3a 3b 3e
       -0.16277145 0.7988101 0.81761414 0.18283904
000110 ab f6 3b 3f b3 55 0a be 64 d5 9e 3f a0 ad 3b 3f
       0.7342326 -0.13509254 1.2408872 0.73311806
000120 f6 a2 6b be 44 b6 9e bd 35 ad 2a 3e 60 c5 d7 3d
       -0.23011383 -0.07749608 0.16667636 0.10535693
000130 18 b4 b2 3d 9d 7e f0 3d 84 cd 81 be 71 85 78 3c
       0.087257564 0.117428996 -0.25352108 0.015168534
000140 6e f9 57 3d 44 5c 94 bd 1c e1 f8 bc 3a 9a d6 3d
       0.05272811 -0.07244161 -0.030380778 0.10478635
000150 3e 4e 95 3f 78 da ae bd 44 c9 20 3e 99 0c 83 3f
       1.1664503 -0.08537763 0.15701777 1.023822
000160 70 ae 05 bd c5 63 02 3f 32 5c db 3e da f1 7b 3f
       -0.03263706 0.50933486 0.42843777 0.9841591
000170 ad b7 71 3f 38 48 64 3e c9 2a d5 be bd a2 41 40
       0.9442089 0.22293174 -0.41634205 3.0255578
000180 ab 39 48 bf 5b c5 40 be 25 63 48 3f 7c 90 97 bf
       -0.78212994 -0.18825285 0.7827628 -1.1840968
000190 07 60 12 be 76 f2 d0 3e 0f 13 99 3e d9 0f e2 be
       -0.14294444 0.40809983 0.29897353 -0.44152716
0001a0 dc 0a fa be d8 ad b9 3d 64 be b9 3f 84 16 c7 bf
       -0.4883641 0.09066361 1.4511228 -1.5553746
0001b0 c7 72 a1 3f 8c 73 14 3e e9 0b db 3e 8c 75 35 3f
       1.2613152 0.14497203 0.42782524 0.7088249
0001c0 a2 b8 91 3e 58 0b 53 3f 69 44 73 3f 4d ff 9d 3f
       0.28461176 0.82439184 0.9502626 1.2343537
0001d0 c3 a0 8f 3f d0 8b b4 bd 66 60 3a bf a1 13 7c 40
       1.1220936 -0.088157296 -0.7280334 3.938698
0001e0 e6 34 53 bf 20 3d 50 3d e6 1b ac 3f 01 2b 8d bf
       -0.8250259 0.050839543 1.3446014 -1.1028749
0001f0 06 91 fd bd ff d3 3c 3f cc 51 47 3f c1 e1 00 bf
       -0.12381177 0.7376098 0.7785919 -0.50344473
000200 bf 41 28 bf c0 1d a7 3b 9d e7 9a 3f 08 12 08 bf
       -0.6572532 0.005099982 1.2101933 -0.53152514
000210 bd b9 bb 3f 96 8e 88 3e 8d 0e a5 3d 12 1c 91 3f
       1.4666058 0.26671284 0.08059416 1.1336691
000220 a7 d8 8c be d2 df 12 3f 41 ee 21 3f ce 46 b1 3f
       -0.27509043 0.5737277 0.6325417 1.3849733
000230 0b 40 c4 3f c0 99 4c 3d ce 30 77 bf f7 13 a3 40
       1.5332044 0.049951315 -0.96558845 5.096187

bias f4 [12]
000000 40 54 e4 3d 74 c7 46 3e 28 34 80 be 99 5a 2f 3f
       0.11148882 0.19412023 -0.25039792 0.68497616
000010 f7 60 a9 be 40 11 81 3f c2 ec 93 be ec e0 79 bd
       -0.3308179 1.0083389 -0.2889157 -0.061005518
000020 f1 85 6c 3e 81 7c fd 3e 42 84 7e 3f 4c 00 32 3e
       0.2309797 0.4950905 0.9942056 0.17382926

weight f4 [4, 12]
000000 38 27 e7 3e 64 61 43 3f 07 3c 18 be 6e ff b1 bf
       0.4514711 0.7632048 -0.14866649 -1.3906076
000010 9a c9 85 3f 37 f4 37 be 3c e1 60 be 2f 4d 2b 3e
       1.0452149 -0.17964254 -0.2196092 0.16728662
000020 77 95 d8 bf 60 fc d7 3e b5 98 ba be 47 82 1e 3f
       -1.6920613 0.42184734 -0.3644463 0.6191754
000030 8a be 52 bf 3b a3 8a bf a0 38 f4 3c bc 93 a7 3f
       -0.8232199 -1.0831064 0.029812157 1.309196
000040 04 83 ab bf 9a 0a bf 3e cd 29 0d be e3 04 68 bf
       -1.3399358 0.37312776 -0.13785477 -0.90632457
000050 a7 b6 a5 3f 51 34 75 bd c5 ef 4b 3f b2 0a 37 bf
       1.2946366 -0.059864346 0.79662734 -0.71500695
000060 5f 93 aa 3f 2a f8 59 3f 8f 3d 83 be 30 e2 92 3e
       1.3326224 0.85144293 -0.25632903 0.28688192
000070 38 18 c1 bb 8f be 45 3f f9 35 e4 3d fe 31 99 3f
       -0.0058927797 0.77243894 0.11143107 1.1968381
000080 23 8b a3 be c5 55 99 3f 34 64 27 3f b8 2b 9e 3f
       -0.3194209 1.19793 0.6538727 1.2357092
000090 21 84 11 3e c6 36 83 3e fc 24 13 3e 92 28 8e bf
       0.1421056 0.25627726 0.14369577 -1.1106131
0000a0 0d 63 be 3e 60 88 86 3d 80 83 12 3d ef ff a2 3e
       0.37184945 0.0656898 0.03576994 0.31835887
0000b0 52 38 c9 bf 90 8a 38 3e 50 6f 10 bf ab 4b 0c 3e
       -1.5720313 0.18021607 -0.5641985 0.1370074

bias f4 [4]
000000 51 c6 05 be f8 f1 5e 3f 01 2e 34 3f a6 96 f6 be
       -0.13063933 0.87087965 0.70382696 -0.4816181

weight f4 [12, 10]
000000 f0 64 fd 3e 58 ce d8 3d d3 ee 07 3f a3 a9 bc bf
       0.49491072 0.10586232 0.5309879 -1.4739269
000010 01 4e cf 3d f3 15 18 3f cc 8e 16 be 78 7a 1b 3e
       0.101223 0.5940849 -0.1470291 0.15183437
000020 52 e0 10 3f 1a cb 41 3f 5f 19 69 3f e5 0e 2e 3f
       0.56592286 0.75700533 0.9105434 0.6799148
000030 2d f6 51 bd 83 84 07 40 ae 38 f4 3e dc 7d 1c be
       -0.051260162 2.1174629 0.47699493 -0.15282387
000040 0a ba 99 bd e2 ef ac be 14 13 01 bf 8b a0 d0 3d
       -0.07506187 -0.33776766 -0.50419736 0.10186871
000050 f2 fe 22 3e 76 56 f0 3e 29 62 4b 3d df 79 dc 3f
       0.15917566 0.46940964 0.04965416 1.7224692
000060 c3 bf 6a 3e 64 25 8f be b1 8e fd 3e fb 5b c2 be
       0.22924714 -0.27958214 0.49522927 -0.379608
000070 fc d4 69 bf 28 a2 24 bf 02 24 b1 bd 43 cd 26 be
       -0.91340613 -0.6430993 -0.08649446 -0.16289239
000080 48 b0 74 bd 00 17 9a bb 4e e0 f8 bd 98 08 84 be
       -0.059738427 -0.004702449 -0.12152158 -0.25787807
000090 44 1d d4 bd 9c f5 0a be a0 28 04 3e 08 97 7f bd
       -0.103571445 -0.13570255 0.12906122 -0.062399894
0000a0 d6 8f da 3f 7d 26 ac 3f 62 61 66 3f f5 bf 94 bf
       1.7075145 1.3449246 0.89992344 -1.1621081
0000b0 77 67 6c ba 28 42 c5 3c 8b e7 6d bc c3 ab 9c 3e
       -0.0009018103 0.024079397 -0.014520536 0.30599794
0000c0 44 52 6b 3f 61 89 25 3f e8 0d 90 bd 88 aa c9 3d
       0.919224 0.6466275 -0.070339024 0.098469794
0000d0 ba 81 5d 3e 6e eb 9d bd ac aa 93 3d 7c e3 91 3d
       0.21631518 -0.0771092 0.072102875 0.07123467
0000e0 00 64 f4 39 38 16 29 bd 3f 2b 30 be 82 b1 9a be
       0.00046613812 -0.041280955 -0.17203997 -0.30213553
0000f0 60 dc e5 bc aa 79 f7 bd 08 e1 55 be d0 ab 2e be
       -0.028059185 -0.120837525 -0.20886624 -0.17057729
000100 7f 1b 2d be 31 46 84 3e b7 c8 0f be c0 59 b1 bb
       -0.1690502 0.25834802 -0.1404141 -0.0054123104
000110 c7 24 57 be 52 46 47 be 4c 2e c2 3d 71 16 9d 3e
       -0.21010123 -0.19460419 0.09481487 0.30681184
000120 80 ab ab 3c 2b e6 96 3e da 1f 47 3e f8 88 db bd
       0.020955801 0.2947248 0.19445744 -0.10719484
000130 08 ee 12 bd 4e bd 78 be 20 ee 85 bc f0 c2 8c be
       -0.035871536 -0.24290964 -0.016348898 -0.27492476
000140 c5 9c 4a bf b8 29 67 bf f0 69 03 bf c1 9e a9 3f
       -0.7914546 -0.9029803 -0.5133352 1.3251573
000150 89 24 4e 3e 7a 79 2e bd 16 8d a6 3e 9c 51 6a 3d
       0.20131125 -0.042596318 0.32529515 0.057206735
000160 50 34 c9 be 22 3a 28 bf f8 d7 f1 3d a8 6f 26 3d
       -0.39297724 -0.65713704 0.11808771 0.040633827
000170 7e 20 4f 3e f0 2f a1 3c 6e 97 ad bd 90 87 9d 3d
       0.20227239 0.019676179 -0.084761485 0.07691872
000180 d0 fd a0 3c 96 96 30 be ba 04 dc bd 78 c0 20 bd
       0.019652277 -0.17244944 -0.10743089 -0.039246053
000190 67 c7 84 be 9c 5c 9f be 9e c5 77 3e ba 32 4e 3e
       -0.25933382 -0.31125343 0.24196479 0.20136538
0001a0 63 a9 91 be 22 57 0c 3e d9 a2 3b be b8 fb 7b be
       -0.28449544 0.13705114 -0.1832384 -0.24607742
0001b0 f0 3e ec bd fe 56 40 3e d8 b8 56 3f cf cd 8b 3e
       -0.11535442 0.18783185 0.838758 0.27305457
0001c0 5e 6d d7 3e bc 88 97 bf 21 58 ba be 9d 4c c7 3e
       0.42075628 -1.1838603 -0.36395362 0.3892564
0001d0 f7 58 6d bb 5e f8 19 3e 5e 65 4f 3f ca 6e 71 3f
       -0.0036216357 0.15036151 0.8101405 0.94309676

bias f4 [12]
000000 cb 3e f4 bc 21 30 84 3e ed 3e cc 3e 34 ab 9c bd
       -0.029815098 0.2581797 0.3989176 -0.07649842
000010 e4 92 1a be dc 03 64 be a6 ee 45 be 28 00 7c be
       -0.15095097 -0.22267097 -0.19329318 -0.24609435
000020 0d 0f c8 3e 88 50 06 be 46 d2 01 be 6c 22 36 bd
       0.39073983 -0.13116658 -0.12677869 -0.04446642

weight f4 [12, 12]
000000 02 20 6e bf e1 65 92 3f 56 d6 b4 3f 48 11 5e be
       -0.9301759 1.1437341 1.412791 -0.2168628
000010 4b c8 d8 be 5c e0 a3 3d e8 15 8a 3e 93 f5 0e be
       -0.4234031 0.080017775 0.26969838 -0.13960867
000020 77 37 ae 3e 10 67 c0 bc d2 be 3a 3e 76 be 47 bf
       0.3402669 -0.023486644 0.18236855 -0.78024995
000030 e4 3d 93 bf 93 5e b3 3e 5b ed 1c 3f 80 9c 8e 3c
       -1.1503263 0.35033092 0.61299676 0.01740861
000040 9c 20 49 bf 80 48 da 3c a4 c6 5b be be 98 03 3e
       -0.7856538 0.026645899 -0.21462494 0.12851235
000050 72 21 03 3f 64 11 b8 3d 76 9a 0f 3e 07 3f 56 bf
       0.5122291 0.08987692 0.14023766 -0.8368992
000060 73 a3 5c 3f 1a 8b 04 bf ae ff 20 bf 40 40 4d bd
       0.86186904 -0.5177475 -0.62890136 -0.0501101
000070 a9 28 39 3f f1 b7 81 be 6e f3 52 be 06 f5 31 be
       0.7232767 -0.2533565 -0.20600674 -0.17378625
000080 20 4d 33 be b6 48 f9 bd 61 d2 2f be ba 54 1a 3f
       -0.1750989 -0.12172072 -0.17170097 0.6028553
000090 dd 7e 2e 3f 84 ab 86 be cc 13 5d bf 4e dc 3b 3e
       0.6816233 -0.2630273 -0.8635833 0.18345758
0000a0 0d ba c3 3e 1d 13 23 be f8 9b 75 bd ae 0a 64 be
       0.38227883 -0.1592526 -0.059963197 -0.22269699
0000b0 a8 33 1c 3d 80 65 3a 3e 20 64 7f 3e fd 19 77 3f
       0.0381352 0.18202782 0.24940538 0.9652403
0000c0 cb 76 35 3f cc e9 10 bf 30 16 58 bf 00 46 5f 3a
       0.7088439 -0.56606746 -0.84408855 0.0008517206
0000d0 63 12 65 3f e8 7b 29 bd ed 62 8d be a4 f3 e3 bd
       0.8948118 -0.04137793 -0.27614537 -0.11130455
0000e0 63 bb 9f 3c 12 06 80 be 72 86 53 be a8 f7 23 3f
       0.019498533 -0.2500463 -0.20656756 0.6404977
0000f0 6e de ee be a0 46 ad 3f 8a e7 95 3f 78 55 d1 bd
       -0.46654075 1.3537178 1.1711285 -0.1022138
000100 41 d5 5b bd 60 3a 82 3d d0 71 51 3e 58 d3 67 bd
       -0.05367017 0.063587904 0.20453572 -0.056598037
000110 29 b4 40 3f 98 b5 6f 3e 5d b6 26 be 56 e8 da be
       0.752749 0.23409116 -0.16280504 -0.42755383
000120 4b 6f 22 3f 6c 44 f0 be 44 9a 50 bf e6 7a 8d bd
       0.6345107 -0.46927202 -0.8148539 -0.06908207
000130 25 f9 10 3f 1a 8a 3e be b8 57 83 3e a0 02 93 3e
       0.56630164 -0.18607369 0.25652862 0.2871294
000140 c9 b0 9f be ec cd 46 3e 24 b8 ae 3d d5 51 64 3f
       -0.31189564 0.1941449 0.08531216 0.89187366
000150 6d 6d 34 bf a7 dd 3d 3f 2e 4c 90 3f 72 0f 57 be
       -0.7047947 0.7416634 1.1273248 -0.21001986
000160 c3 38 0e bf 3c e6 c2 bd 98 2f 2a 3e 80 d1 c0 bb
       -0.5555536 -0.0951657 0.16619718 -0.0058843493
000170 bb 77 09 3f dc 58 2a be 1c f7 9a 3d a3 38 7a bf
       0.5369832 -0.1663546 0.075666636 -0.9774267
000180 c8 0f 7d 3d ec 4c d3 bd 19 0d 88 be b0 f9 90 3c
       0.06178263 -0.10317406 -0.26572493 0.017697185
000190 cf a1 16 be cc 49 86 bd 8c c5 53 bd c2 7c 28 3e
       -0.14710163 -0.065570444 -0.051702067 0.16453841
0001a0 28 ff 6c 3e cc ce 8a be 07 f1 0c be 43 fe 28 be
       0.2314421 -0.27110898 -0.1376382 -0.16503243
0001b0 f3 4b 8b bf 85 07 9b 3f 66 f0 a6 3f 5a 5f 47 3e
       -1.0882553 1.211167 1.3042114 0.19469967
0001c0 29 40 47 bf 3e 32 19 3e dc 62 61 3e f2 39 93 be
       -0.77832276 0.14960572 0.22010368 -0.28755146
0001d0 8b 5c 09 3f 30 a1 ff bc bd ef 7f be 02 b0 2e bf
       0.53656834 -0.03120479 -0.24993797 -0.68237317
0001e0 e1 1a 87 bf 4e 22 0a 3f eb 43 7d 3f 02 e8 8a 3e
       -1.0555078 0.53958595 0.9893176 0.27130133
0001f0 65 87 8e bf 50 bf 96 3c 3e 2a 48 3e 7c d5 c2 3d
       -1.1135069 0.018401772 0.19547364 0.09513375
000200 1b 57 01 3f 4e 7d fd bd 48 e4 3c 3e a3 01 4d bf
       0.5052354 -0.123774156 0.18446457 -0.8008062
000210 91 a3 dc 3d c8 cb 49 3f cb 2d 58 3b 7e 96 8f be
       0.10773385 0.7882657 0.003298628 -0.28044504
000220 1b a4 73 3f f8 47 92 bd 78 85 59 3d d0 73 ee 3d
       0.9517228 -0.07142633 0.0531058 0.11643183
000230 05 08 0f bf a8 0e 1c 3d b8 0a 03 bd 97 a7 2b 3f
       -0.5587161 0.038099915 -0.031992644 0.67052597

bias f4 [12]
000000 a0 86 bd 3e c4 8c c8 3e a2 b1 16 3e 04 bf 99 3e
       0.37016773 0.39169896 0.14716199 0.30028546
000010 a2 f2 14 3d 14 33 26 3f 7e 91 2f 3e 51 bf a0 3e
       0.036364205 0.6492169 0.17145345 0.31395963
000020 a6 e1 ad bd 72 04 95 3e 3b d9 8d 3e c1 46 e6 be
       -0.08490305 0.29104954 0.27704796 -0.44975856

weight f4 [4, 12]
000000 54 d7 b2 3d 8d 3c 24 be 8e ec 12 be a4 56 dd 3d
       0.08732477 -0.16038723 -0.14348051 0.10807541
000010 84 91 35 be 4c f2 14 be 10 6d 71 3d d0 83 83 3c
       -0.17731291 -0.14545554 0.0589419 0.016054064
000020 28 8d a3 3d d7 fb 20 be 5c 53 94 3d 5f 61 5f be
       0.07985908 -0.1572107 0.07242462 -0.21814488
000030 85 b7 77 be 1c 84 7c bd 83 85 6e be 43 91 8a be
       -0.24191101 -0.061649427 -0.23293118 -0.2706395
000040 d2 ae 33 3e 90 fa b0 3d 64 7d 62 3e fc 9d b8 bd
       0.17547157 0.08641541 0.22118145 -0.09014508
000050 62 6f 90 be 04 ed e3 3d 05 12 5d be c4 00 08 be
       -0.28209978 0.111291915 -0.21588905 -0.13281542
000060 e8 98 e8 3f 6b 9b c9 3f 14 6a 95 be cc 33 cd be
       1.8171663 1.5750555 -0.29182494 -0.4007858
000070 3e da 2e bf 8e d3 a3 3f a8 2e ef be 14 9d b0 3f
       -0.6830176 1.2798936 -0.46715283 1.3797936
000080 60 bc 8f bd 35 fb f4 3f c2 0c 04 40 af 62 92 40
       -0.070183516 1.9139162 2.0632787 4.5745463
000090 95 cc 2c 3f 8d 40 87 3f 4d bb 91 bf a3 ce b6 bf
       0.6749967 1.0566574 -1.1385285 -1.428181
0000a0 7c 84 e7 bf 53 79 cb 3d 6e 88 b3 bf 7e 51 4b 3f
       -1.8087306 0.0993525 -1.402601 0.7942122
0000b0 10 10 8d 3e cf 41 4b 3f c1 e2 94 3f 0d f1 7d 3f
       0.27551317 0.7939729 1.16317 0.9919594

bias f4 [4]
000000 e8 52 66 bd bc 2e 5d be bd 07 3f 3f c3 21 e0 be
       -0.05623141 -0.21599859 0.7462118 -0.43775758
